models/initial_model/model.pth (torch_old, 824553 bytes, 60 tensors)

fc_layers.1.weight f4 [125]
7.7608256 13.130226 -6.7941003 -1.7436346 2.909513 3.7633407 -5.326694 4.6073165
6.6647706 -3.2896965 1.2155743 2.3381708 6.734024 1.0 1.0 1.0
1.0 1.0 1.0 1.0 1.0 1.0 1.0 1.0
1.0 1.0 1.0 1.0 1.0 1.0 1.0 1.0
1.0 1.0 1.0 1.0 1.0 1.0 1.0 1.0
1.0 1.0 1.0 1.0 1.0 1.0 1.0 1.0
1.0 1.0 1.0 1.0 16.15851 8.499476 5.3232656 4.5600905
-1.1699556 8.063674 0.69674313 -11.591385 0.48773855 5.666799 0.6119488 0.19080041
-2.8242023 0.3661473 -0.19937581 8.937172 -2.756423 1.0 1.0 1.0
1.0 1.0 1.0 1.0 1.0 1.0 1.0 1.0
1.0 1.0 1.0 1.0 1.0 1.0 1.0 1.0
1.0 1.0 1.0 1.0 1.0 1.0 1.0 1.0
1.0 1.0 1.0 1.0 1.0 1.0 1.0 1.0
1.0 1.0 1.0 1.0 14.979565 7.89931 6.2125115 2.677156
-0.44813997 9.8243475 1.0 10.572549 -6.896431 -7.611293 7.7914667 11.520059
29.74927 2.2339263 -3.710355 2.0044184 9.448906
00000000: af58 f840 6815 5241 4569 d9c0 6b2f dfbf
00000010: 7635 3a40 93da 7040 4774 aac0 236f 9340
00000020: cd45 d540 638a 52c0 f097 9b3f 97a4 1540
00000030: 207d d740 0000 803f 0000 803f 0000 803f
00000040: 0000 803f 0000 803f 0000 803f 0000 803f
00000050: 0000 803f 0000 803f 0000 803f 0000 803f
00000060: 0000 803f 0000 803f 0000 803f 0000 803f
00000070: 0000 803f 0000 803f 0000 803f 0000 803f
00000080: 0000 803f 0000 803f 0000 803f 0000 803f
00000090: 0000 803f 0000 803f 0000 803f 0000 803f
000000a0: 0000 803f 0000 803f 0000 803f 0000 803f
000000b0: 0000 803f 0000 803f 0000 803f 0000 803f
000000c0: 0000 803f 0000 803f 0000 803f 0000 803f
000000d0: a144 8141 dbfd 0741 3158 aa40 43ec 9140
000000e0: 1bc1 95bf cf04 0141 c25d 323f 5076 39c1
000000f0: deb8 f93e 6b56 b540 ada8 1c3f 2f61 433e
00000100: bbbf 34c0 a977 bb3e 2c29 4cbe a8fe 0e41
00000110: 3c69 30c0 0000 803f 0000 803f 0000 803f
00000120: 0000 803f 0000 803f 0000 803f 0000 803f
00000130: 0000 803f 0000 803f 0000 803f 0000 803f
00000140: 0000 803f 0000 803f 0000 803f 0000 803f
00000150: 0000 803f 0000 803f 0000 803f 0000 803f
00000160: 0000 803f 0000 803f 0000 803f 0000 803f
00000170: 0000 803f 0000 803f 0000 803f 0000 803f
00000180: 0000 803f 0000 803f 0000 803f 0000 803f
00000190: 0000 803f 0000 803f 0000 803f 0000 803f
000001a0: 0000 803f 0000 803f 0000 803f 0000 803f
000001b0: 4cac 6f41 26c7 fc40 e5cc c640 8656 2b40
000001c0: 9a72 e5be 8730 1d41 0000 803f 2929 2941
000001d0: 90af dcc0 b68f f3c0 b253 f940 2952 3841
000001e0: 81fe ed41 a6f8 0e40 7576 6dc0 6448 0040
000001f0: b82e 1741

fc_layers.1.bias f4 [125]
6.6574273 10.49959 -4.141986 -0.7266357 -3.4498286 2.4247825 0.6412572 -5.476896
-0.19911584 -2.0966735 0.29640633 -3.9087672 -0.58302563 2.4483821 1.7735094 0.55743444
4.172807 -1.8655154 -1.9897443 -0.2836787 1.7567563 1.8483753 0.8609571 0.7728904
4.652865 -0.57662594 0.45354468 -0.5580642 -1.8481975 1.5991735 1.3517803 5.0453596
3.0858524 3.1040657 1.3023369 1.656002 5.902487 1.5633291 0.97134787 -1.5468528
-1.0919213 1.1336077 -0.2569644 -1.5683525 -1.6895185 1.7147881 -0.6510368 -5.573238
1.1693437 -4.127286 -1.4138621 -1.1130241 2.4222891 2.0662477 -1.1557534 -1.2926052
-0.8538196 2.5172517 2.6626773 0.06648769 8.150751 -5.6729646 -0.52059543 1.7726386
-1.8442742 -4.116943 -1.8533128 3.1567762 0.07349231 1.8578382 -2.9452765 -5.1609926
-1.0478797 1.1255805 -5.1405015 -1.806216 -4.995512 1.859298 3.2145395 -1.3865236
1.1202656 -3.2507677 4.326861 -2.5583792 2.995934 5.005547 -1.7569662 -0.61785936
-5.0453663 -1.0650795 -0.24341586 1.9423324 -2.906293 2.268034 0.060485702 1.0259395
-0.042612996 1.835281 4.532088 2.0010378 3.7331026 0.95429546 3.5647957 2.1913202
-0.5693834 -1.5508652 1.4049976 1.5557008 1.8658643 1.5594221 -1.2311177 -2.0001018
1.324969 0.94590056 1.9185599 3.666133 -0.54194766 0.95085114 -0.80139405 -4.718084
-0.015525048 1.7142956 -0.7056912 3.5393703 0.48657894
00000000: a509 d540 52fe 2741 268b 84c0 cc04 3abf
00000010: fec9 5cc0 a32f 1b40 6f29 243f bb42 afc0
00000020: 06e5 4bbe e62f 06c0 92c2 973e 3e29 7ac0
00000030: 2b41 15bf 4bb2 1c40 5b02 e33f 06b4 0e3f
00000040: a387 8540 35c9 eebf f1af febf 563e 91be
00000050: 64dd e03f 9097 ec3f af67 5c3f 25dc 453f
00000060: 45e4 9440 c29d 13bf 0237 e83e 4cdd 0ebf
00000070: bc91 ecbf b8b1 cc3f 2307 ad3f 9673 a140
00000080: 9b7e 4540 03a9 4640 fab2 a63f e0f7 d33f
00000090: 2ce1 bc40 2b1b c83f 41aa 783f 46ff c5bf
000000a0: 14c4 8bbf 0f1a 913f d690 83be c6bf c8bf
000000b0: 2442 d8bf 2d7e db3f 59aa 26bf f757 b2c0
000000c0: 0ead 953f ba12 84c0 6ff9 b4bf 9377 8ebf
000000d0: c906 1b40 673d 0440 baef 93bf 1674 a5bf
000000e0: ec93 5abf a71a 2140 4e69 2a40 b32a 883d
000000f0: 7a69 0241 ed88 b5c0 be45 05bf d2e5 e23f
00000100: 2d11 ecbf ffbd 83c0 5b39 edbf 9f08 4a40
00000110: 2383 963d a4cd ed3f 697f 3cc0 da26 a5c0
00000120: ec20 86bf 0613 903f fd7e a4c0 1632 e7bf
00000130: 3cdb 9fc0 7afd ed3f 04bb 4d40 9b79 b1bf
00000140: dd64 8f3f 940c 50c0 a575 8a40 7cbc 23c0
00000150: 62bd 3f40 712d a040 45e4 e0bf 082c 1ebf
00000160: a473 a1c0 8654 88bf 0242 79be 599e f83f
00000170: b400 3ac0 7827 1140 dbbf 773d fc51 833f
00000180: f78a 2ebd 7dea ea3f dd06 9140 0111 0040
00000190: 27eb 6e40 b54c 743f 9d25 6440 973e 0c40
000001a0: 1cc3 11bf c082 c6bf f6d6 b33f 3421 c73f
000001b0: a4d4 ee3f 259b c73f 4495 9dbf ab01 00c0
000001c0: 9698 a93f 8a26 723f 5f93 f53f eca1 6a40
000001d0: 15bd 0abf fb6a 733f 2928 4dbf 8bfa 96c0
000001e0: c55c 7ebc 0a6e db3f 2ea8 34bf 0b85 6240
000001f0: e020 f93e

fc_layers.1.running_mean f4 [125]
0.058334187 0.041367397 0.050602138 0.045452476 0.05195907 0.05187964 0.05313902 0.048867922
0.053041723 0.04677371 0.052823015 0.04591346 0.048292123 0.0 0.0 0.0
0.0 0.0 0.0 0.0 0.0 0.0 0.0 0.0
0.0 0.0 0.0 0.0 0.0 0.0 0.0 0.0
0.0 0.0 0.0 0.0 0.0 0.0 0.0 0.0
0.0 0.0 0.0 0.0 0.0 0.0 0.0 0.0
0.0 0.0 0.0 0.0 0.15782833 0.15612519 0.17016086 0.16433154
0.15644853 0.15478243 0.15656035 0.15266998 0.15969846 0.16548422 0.16641144 0.15795775
0.16016032 0.15562277 0.14369154 0.14398727 0.12652497 0.0 0.0 0.0
0.0 0.0 0.0 0.0 0.0 0.0 0.0 0.0
0.0 0.0 0.0 0.0 0.0 0.0 0.0 0.0
0.0 0.0 0.0 0.0 0.0 0.0 0.0 0.0
0.0 0.0 0.0 0.0 0.0 0.0 0.0 0.0
0.0 0.0 0.0 0.0 0.15782833 0.15612519 0.17016086 0.16433154
0.41209155 15.83586 0.99999976 0.42424765 1.2061319 0.79386806 38.29073 0.49641383
0.49211487 0.12996483 0.9877625 5.842367 32.448364
00000000: d4ef 6e3d dc70 293d 3044 4f3d 602c 3a3d
00000010: 09d3 543d bf7f 543d 4da8 593d bb29 483d
00000020: 4742 593d ca95 3f3d f25c 583d c10f 3c3d
00000030: f6cd 453d 0000 0000 0000 0000 0000 0000
00000040: 0000 0000 0000 0000 0000 0000 0000 0000
00000050: 0000 0000 0000 0000 0000 0000 0000 0000
00000060: 0000 0000 0000 0000 0000 0000 0000 0000
00000070: 0000 0000 0000 0000 0000 0000 0000 0000
00000080: 0000 0000 0000 0000 0000 0000 0000 0000
00000090: 0000 0000 0000 0000 0000 0000 0000 0000
000000a0: 0000 0000 0000 0000 0000 0000 0000 0000
000000b0: 0000 0000 0000 0000 0000 0000 0000 0000
000000c0: 0000 0000 0000 0000 0000 0000 0000 0000
000000d0: c09d 213e 48df 1f3e a63e 2e3e 8746 283e
000000e0: 0b34 203e 497f 1e3e 5b51 203e 8555 1c3e
000000f0: fe87 233e b274 293e c367 2a3e adbf 213e
00000100: 1101 243e 935b 1f3e e023 133e 6671 133e
00000110: c38f 013e 0000 0000 0000 0000 0000 0000
00000120: 0000 0000 0000 0000 0000 0000 0000 0000
00000130: 0000 0000 0000 0000 0000 0000 0000 0000
00000140: 0000 0000 0000 0000 0000 0000 0000 0000
00000150: 0000 0000 0000 0000 0000 0000 0000 0000
00000160: 0000 0000 0000 0000 0000 0000 0000 0000
00000170: 0000 0000 0000 0000 0000 0000 0000 0000
00000180: 0000 0000 0000 0000 0000 0000 0000 0000
00000190: 0000 0000 0000 0000 0000 0000 0000 0000
000001a0: 0000 0000 0000 0000 0000 0000 0000 0000
000001b0: c09d 213e 48df 1f3e a63e 2e3e 8746 283e
000001c0: aafd d23e af5f 7d41 fcff 7f3f fd36 d93e
000001d0: 8862 9a3f f03a 4b3f b529 1942 f429 fe3e
000001e0: 7bf6 fb3e 8015 053e 01de 7c3f acf4 ba40
000001f0: 20cb 0142

fc_layers.1.running_var f4 [125]
0.06582628 0.044599976 0.056140892 0.050481595 0.059837103 0.059418716 0.05691947 0.057399448
0.06208317 0.0501408 0.05641742 0.049389835 0.052727446 6e-45 6e-45 6e-45
6e-45 6e-45 6e-45 6e-45 6e-45 6e-45 6e-45 6e-45
6e-45 6e-45 6e-45 6e-45 6e-45 6e-45 6e-45 6e-45
6e-45 6e-45 6e-45 6e-45 6e-45 6e-45 6e-45 6e-45
6e-45 6e-45 6e-45 6e-45 6e-45 6e-45 6e-45 6e-45
6e-45 6e-45 6e-45 6e-45 0.2161062 0.21818915 0.24747096 0.23549761
0.13869971 0.13536541 0.13851418 0.1357627 0.14645928 0.14575094 0.14738284 0.14314122
0.14609505 0.14085963 0.13545148 0.13053086 0.11524672 6e-45 6e-45 6e-45
6e-45 6e-45 6e-45 6e-45 6e-45 6e-45 6e-45 6e-45
6e-45 6e-45 6e-45 6e-45 6e-45 6e-45 6e-45 6e-45
6e-45 6e-45 6e-45 6e-45 6e-45 6e-45 6e-45 6e-45
6e-45 6e-45 6e-45 6e-45 6e-45 6e-45 6e-45 6e-45
6e-45 6e-45 6e-45 6e-45 0.2161062 0.21818915 0.24747096 0.23549761
0.115671396 185.31218 6e-45 0.106009394 0.16384307 0.16384307 2187.9475 0.00974636
0.016413128 0.20375241 1.2179397 164.45085 1773.3489
00000000: eecf 863d 77ae 363d fef3 653d cac5 4e3d
00000010: c017 753d 0a61 733d 6424 693d af1b 6b3d
00000020: ec4a 7e3d 7160 4d3d f415 673d ff4c 4a3d
00000030: bcf8 573d 0400 0000 0400 0000 0400 0000
00000040: 0400 0000 0400 0000 0400 0000 0400 0000
00000050: 0400 0000 0400 0000 0400 0000 0400 0000
00000060: 0400 0000 0400 0000 0400 0000 0400 0000
00000070: 0400 0000 0400 0000 0400 0000 0400 0000
00000080: 0400 0000 0400 0000 0400 0000 0400 0000
00000090: 0400 0000 0400 0000 0400 0000 0400 0000
000000a0: 0400 0000 0400 0000 0400 0000 0400 0000
000000b0: 0400 0000 0400 0000 0400 0000 0400 0000
000000c0: 0400 0000 0400 0000 0400 0000 0400 0000
000000d0: f24a 5d3e fa6c 5f3e 0769 7d3e 4926 713e
000000e0: 4c07 0e3e 3b9d 0a3e a9d6 0d3e 6105 0b3e
000000f0: 6cf9 153e bc3f 153e 87eb 163e 9d93 123e
00000100: f199 153e 823d 103e cbb3 0a3e e2a9 053e
00000110: 7906 ec3d 0400 0000 0400 0000 0400 0000
00000120: 0400 0000 0400 0000 0400 0000 0400 0000
00000130: 0400 0000 0400 0000 0400 0000 0400 0000
00000140: 0400 0000 0400 0000 0400 0000 0400 0000
00000150: 0400 0000 0400 0000 0400 0000 0400 0000
00000160: 0400 0000 0400 0000 0400 0000 0400 0000
00000170: 0400 0000 0400 0000 0400 0000 0400 0000
00000180: 0400 0000 0400 0000 0400 0000 0400 0000
00000190: 0400 0000 0400 0000 0400 0000 0400 0000
000001a0: 0400 0000 0400 0000 0400 0000 0400 0000
000001b0: f24a 5d3e fa6c 5f3e 0769 7d3e 4926 713e
000001c0: 20e5 ec3d eb4f 3943 0400 0000 741b d93d
000001d0: 7ac6 273e 7ac6 273e 29bf 0845 32af 1f3c
000001e0: d374 863c 79a4 503e 73e5 9b3f 6b73 2443
000001f0: 2aab dd44

fc_layers.2.weight f4 [128, 125]
-1.5300312 -2.8266876 0.73979706 -2.1052685 2.2498496 5.3861065 1.4662172 -2.61829
0.93063945 -0.69973177 2.5291665 1.3308874 -2.845253 5.8703938 -5.024854 -0.9456842
3.222775 7.85432 12.647307 7.2457337 -1.2412999 1.0922176 1.2987735 -9.53601
0.88379836 9.422084 5.4048448 2.8006349 3.4148545 0.34301105 -7.285667 2.6117108
-0.42495123 1.7860781 -0.83732647 9.906731 1.4520748 9.019626 7.7857046 -11.744837
-0.9154519 -2.7648537 -3.3179274 1.1616304 -10.8966675 9.633443 6.8474603 -1.3797277
9.0621195 -1.1410041 0.25167432 -6.8086653 1.2227994 0.47990003 2.1469283 0.3767458
1.2895305 1.4314595 3.6793137 -2.5502489 1.3258808 -4.8348055 -0.25720122 1.3863935
-0.46813834 -5.0825186 1.7967987 -3.9097123 -3.8899002 -12.14704 -1.298691 -2.5177116
-0.7131834 -2.0867012 -1.2269725 13.053776 -1.3651111 9.830768 -6.2755446 -11.31242
-1.6193495 -6.1447673 2.8490171 -2.3572443 6.2577534 2.4467173 1.25217 -9.829115
0.0038104276 -10.497596 6.385068 -7.984801 -6.5861444 1.8969766 2.556239 0.241838
0.050232388 0.5679474 1.4272449 -0.5755346 2.7403576 5.512973 3.796043 -0.95534843
0.6422192 5.467007 -1.0685017 -3.6728044 1.7282459 1.3221861 1.9981586 0.11013723
4.082026 -11.308232 9.034365 9.5199175 -4.068013 4.0812817 5.722943 3.6888592
2.3764782 4.1786437 -1.6690139 1.283825 5.351518 -3.4688203 -12.490478 14.164722
-4.876525 -0.8299877 -2.2435992 1.9226305 6.933385 -3.2029734 3.2076697 -3.987742
10.036228 5.9211206 -8.660375 -4.2604046 0.07064207 -4.060956 4.5106225 -0.7282225
-4.69554 1.1266828 1.5742332 4.7056766 1.6516336 -6.7277083 -8.59982 -7.7397504
-0.5494813 2.9686737 1.6872752 -0.7043949 -4.1064224 -2.833848 -3.5987194 2.2932916
-2.7444022 -6.5043316 -5.68399 -6.216666 3.2138412 2.7980912 0.89058524 1.4372894
-2.3767583 5.1378202 -3.2395859 -4.349425 6.2971883 -7.858073 4.1688986 3.2718635
9.13961 -2.2270238 -4.6644864 -6.6078315 0.28864506 -1.5614625 -3.5407906 -2.6098714
-1.8085274 -2.6193929 -1.3050991 2.7253313 5.8701806 2.959449 3.6152837 7.489029
-3.895493 -8.922308 1.9466631 1.7660801 4.225723 -3.1292856 -5.185174 6.0985284
-0.5395443 3.0293007 -5.612932 -0.11022586 3.7828324 1.6879716 7.7435856 -3.2657685
3.0199487 -7.766393 -4.695567 -0.6197181 6.1531186 5.4175057 2.696925 -4.032344
-4.6324453 6.1924415 -2.1162634 2.4957716 3.7480743 -2.4082086 -1.2437135 -4.496062
-6.444991 -2.6072803 -3.4404893 -3.6282017 0.67722654 -3.434962 -2.0098732 -2.2062936
-3.4802296 -1.1297837 -5.8032274 -5.8712487 1.7451605 -5.555626 1.052679 -5.846294
-5.5747657 -5.699008 4.44635 0.55553585 2.303915 -1.7789335 -10.702658 -2.1567476
-5.6437483 0.5028259 -0.41087934 0.4568478 -6.132114 -4.16756 -1.6394796 4.8748417
00000000: 10d8 c3bf 73e8 34c0 5763 3d3f b8bc 06c0
00000010: 89fd 0f40 fc5a ac40 01ad bb3f 1092 27c0
00000020: 633e 6e3f 9f21 33bf dddd 2140 855a aa3f
00000030: a018 36c0 44da bb40 9bcb a0c0 5c18 72bf
00000040: f241 4e40 9756 fb40 5f5b 4a41 0ddd e740
00000050: eae2 9ebf c9cd 8b3f 363e a63f 7f93 18c1
00000060: 9c40 623f dbc0 1641 7df4 ac40 9a3d 3340
00000070: fa8c 5a40 259f af3e 2f24 e9c0 4526 2740
00000080: 3593 d9be 359e e43f 075b 56bf f881 1e41
00000090: 96dd b93f 6350 1041 7e24 f940 daea 3bc1
000000a0: 0e5b 6abf 5df3 30c0 ec58 54c0 4eb0 943f
000000b0: c058 2ec1 9522 1a41 651e db40 eb9a b0bf
000000c0: 71fe 1041 6c0c 92bf 75db 803e 96e0 d9c0
000000d0: b184 9c3f 75b5 f53e 4667 0940 d3e4 c03e
000000e0: 560f a53f 113a b73f e079 6b40 4737 23c0
000000f0: 76b6 a93f bab6 9ac0 e1af 83be 5875 b13f
00000100: d4af efbe fea3 a2c0 80fd e53f ba38 7ac0
00000110: 20f4 78c0 475a 42c1 823b a6bf 3022 21c0
00000120: 3093 36bf 838c 05c0 6f0d 9dbf 44dc 5041
00000130: f6bb aebf d34a 1d41 43d1 c8c0 acff 34c1
00000140: d846 cfbf efa1 c4c0 4c56 3640 17dd 16c0
00000150: 843f c840 0497 1c40 1b47 a03f 0e44 1dc1
00000160: 5eb8 793b 27f6 27c1 7a52 cc40 7d83 ffc0
00000170: b2c1 d2c0 21d0 f23f 6b99 2340 61a4 773e
00000180: 7ac0 4d3d 0065 113f f6af b63f 3c56 13bf
00000190: 0562 2f40 466a b040 5ef2 7240 b791 74bf
000001a0: 7a68 243f b9f1 ae40 aac4 88bf 3a0f 6bc0
000001b0: 2937 dd3f 653d a93f a9c3 ff3f a18f e13d
000001c0: f59f 8240 85ee 34c1 c28c 1041 9551 1841
000001d0: 2a2d 82c0 dc99 8240 5922 b740 4516 6c40
000001e0: 3818 1840 73b7 8540 3fa2 d5bf 6154 a43f
000001f0: a33f ab40 2701 5ec0 ffd8 47c1 b4a2 6241
00000200: 7e0c 9cc0 137a 54bf 2197 0fc0 c218 f63f
00000210: 4ade dd40 84fd 4cc0 764a 4d40 2a37 7fc0
00000220: 6494 2041 d279 bd40 e590 0ac1 3c55 88c0
00000230: caac 903d 5af3 81c0 0557 9040 ca6c 3abf
00000240: dd41 96c0 2437 903f 7980 c93f e794 9640
00000250: bb68 d33f 6349 d7c0 dd98 09c1 09ac f7c0
00000260: ceaa 0cbf c0fe 3d40 a2f8 d73f 3953 34bf
00000270: d067 83c0 c45d 35c0 6b51 66c0 4ac5 1240
00000280: 49a4 2fc0 7c23 d0c0 3fe3 b5c0 eeee c6c0
00000290: 93af 4d40 ed13 3340 65fd 633f 19f9 b73f
000002a0: cf1c 18c0 0669 a440 6055 4fc0 7d2e 8bc0
000002b0: 9182 c940 5675 fbc0 9e67 8540 3666 5140
000002c0: d83b 1241 8f87 0ec0 7943 95c0 5b73 d3c0
000002d0: 49c9 933e 01de c7bf 509c 62c0 2208 27c0
000002e0: d37d e7bf 22a4 27c0 7d0d a7bf d46b 2e40
000002f0: 85d8 bb40 9d67 3d40 cf60 6740 20a6 ef40
00000300: c24f 79c0 c6c1 0ec1 422c f93f ea0e e23f
00000310: 1f39 8740 3746 48c0 f2ec a5c0 2527 c340
00000320: 931f 0abf 10e0 4140 249d b3c0 18be e1bd
00000330: ed19 7240 740f d83f 74cb f740 5a02 51c0
00000340: d746 4140 4b86 f8c0 1642 96c0 d8a5 1ebf
00000350: 59e6 c440 355c ad40 6b9a 2c40 f608 81c0
00000360: fe3c 94c0 7b28 c640 dc70 07c0 b9ba 1f40
00000370: 73e0 6f40 1720 1ac0 0132 9fbf bddf 8fc0
00000380: 5e3d cec0 aedd 26c0 fa30 5cc0 7534 68c0
00000390: b85e 2d3f 6bd6 5bc0 c3a1 00c0 ea33 0dc0
000003a0: 15bc 5ec0 c19c 90bf 0ab4 b9c0 45e1 bbc0
000003b0: 6b61 df3f b0c7 b1c0 2fbe 863f d714 bbc0
000003c0: 7b64 b2c0 465e b6c0 8048 8e40 9937 0e3f
000003d0: 5873 1340 18b4 e3bf 163e 2bc1 2708 0ac0
000003e0: 9699 b4c0 33b9 003f c75e d2be f4e7 e93e
000003f0: 473a c4c0 a75c 85c0 78da d1bf b4fe 9b40

fc_layers.2.bias f4 [128]
-0.89108557 -3.9040725 5.462461 -1.3113339 -1.4601599 -6.895578 1.4822071 -1.5315253
-1.616049 -0.37726986 -5.400599 -0.9246034 3.6998599 -1.1622763 -4.694387 -2.6336687
0.80574965 4.5477586 0.97848505 1.3136969 -0.5449302 -4.5586185 -2.187893 -1.4043045
-1.0670427 2.6803834 4.103337 1.403886 3.663828 -1.8827358 -3.0518365 -4.6223283
2.1305954 2.6214805 0.99339384 -3.7360256 -4.1557083 5.6271734 -3.506634 -0.16926469
-2.26457 1.2773532 1.3329816 3.5180702 -2.5852516 0.17352879 -6.7118454 6.7409
3.8138154 -2.7588944 0.83486634 -2.605809 -1.8611033 -3.428965 2.5949514 2.4540489
3.7589884 6.0192995 -2.8770516 -1.857466 -0.67903185 -4.1466284 -2.34242 -2.018042
4.1644726 -1.4902849 -5.6663465 2.1969032 -0.7209564 -1.7051805 1.8379917 -5.8005757
-0.66328377 -3.431145 -6.49699 2.1966345 -1.3455108 -5.7558374 -0.010973321 3.9021175
5.066077 0.644462 -3.0484798 -2.438052 -3.9935431 -4.6682606 5.777207 0.08080544
-3.1660054 0.8807952 -1.8001565 1.437121 0.78506017 2.4547038 -3.2798336 -2.1728601
2.6961975 -2.9755347 1.4301137 1.8826169 3.8678532 3.7121434 5.723978 0.52897125
4.544229 -1.9985898 4.0807405 1.8381193 -6.8954744 0.5474335 1.9262117 -1.9895033
-3.1439395 -4.735403 -1.8367817 -0.34025127 -1.5369971 2.9505973 -4.1575184 -8.1909
-5.426306 -2.287444 -5.1809845 -1.6233759 -0.1915855 2.7302444 2.549885 2.494205
00000000: 2f1e 64bf 53dc 79c0 7bcc ae40 cad9 a7bf
00000010: 85e6 babf 93a8 dcc0 f6b8 bd3f 0509 c4bf
00000020: b2da cebf 8429 c1be b5d1 acc0 cfb2 6cbf
00000030: 81ca 6c40 78c5 94bf 6b38 96c0 078e 28c0
00000040: 9c45 4e3f 3d87 9140 ff7d 7a3f 3827 a83f
00000050: 8c80 0bbf 34e0 91c0 7006 0cc0 40c0 b3bf
00000060: db94 88bf 678b 2b40 894e 8340 89b2 b33f
00000070: 287c 6a40 7dfd f0bf 4a51 43c0 1dea 93c0
00000080: ad5b 0840 56c6 2740 0f4f 7e3f 0b1b 6fc0
00000090: 90fb 84c0 ce11 b440 b16c 60c0 b953 2dbe
000000a0: b7ee 10c0 4f80 a33f 249f aa3f 1028 6140
000000b0: c374 25c0 88b1 313e 70c7 d6c0 74b5 d740
000000c0: 8d15 7440 ba91 30c0 cdb9 553f 93c5 26c0
000000d0: a238 eebf 2a74 5bc0 af13 2640 230f 1d40
000000e0: 4493 7040 1a9e c040 9d21 38c0 72c1 edbf
000000f0: 08d5 2dbf 2eb1 84c0 36ea 15c0 9a27 01c0
00000100: 5c43 8540 a8c1 bebf b652 b5c0 109a 0c40
00000110: 9990 38bf 5b43 dabf 5043 eb3f 519e b9c0
00000120: f7cc 29bf e197 5bc0 58e7 cfc0 a995 0c40
00000130: b339 acbf d22f b8c0 72c9 33bc 4bbc 7940
00000140: 4e1d a240 76fb 243f 4b1a 43c0 0b09 1cc0
00000150: 3696 7fc0 6462 95c0 e1de b840 537d a53d
00000160: d59f 4ac0 cb7b 613f 876b e6bf 95f3 b73f
00000170: b4f9 483f de19 1d40 cbe8 51c0 2410 0bc0
00000180: 808e 2c40 296f 3ec0 f70d b73f 97f9 f03f
00000190: e88a 7740 c293 6d40 d42a b740 a96a 073f
000001a0: 536a 9140 cad1 ffbf 6d95 8240 7e47 eb3f
000001b0: baa7 dcc0 9a24 0c3f 1b8e f63f 0ba8 febf
000001c0: 4e36 49c0 6c88 97c0 aa1b ebbf 6a35 aebe
000001d0: 52bc c4bf 96d6 3c40 640a 85c0 ed0d 03c1
000001e0: 4ca4 adc0 7c65 12c0 a0ca a5c0 c8ca cfbf
000001f0: fd2e 44be 53bc 2e40 5131 2340 0ea1 1f40

fc_layers.4.weight f4 [128, 128]
-0.9605606 0.7208931 -1.3479652 0.8049201 -3.1194468 -0.4751359 2.5640047 3.9187968
0.19242874 0.38606396 4.179702 -1.497117 -2.2634044 -3.0438046 3.783053 2.1875846
-1.3220094 -2.005151 -1.0397406 0.24560769 -1.9223155 0.8680934 -1.4339981 -2.705889
-2.7550864 1.0237931 -3.0821216 -2.8337262 -0.47729373 -2.4048715 3.3493922 0.5376353
-1.2746978 -0.30575895 2.1179245 0.5902721 3.9635892 -3.2951758 -1.3373649 -1.0178491
1.0697324 -1.5840222 -3.9176347 0.23124518 1.8206962 1.4192128 0.36506945 -0.70670795
-2.855334 -3.8088074 -1.0274217 3.555234 2.9598687 -0.780233 0.4187339 -2.738069
-3.0145864 0.7025869 -1.4134564 0.13545373 -1.4972693 -1.0695516 1.33303 0.46266264
1.3334441 3.9040189 -3.9854865 -2.0407221 0.76528656 1.387265 -1.90129 -2.2358575
0.9707754 -0.8329356 0.052431982 3.966254 1.0007408 0.5521256 0.23330706 -2.6796062
1.6965268 -1.9868708 2.1942627 0.28488022 -0.842258 1.6934361 -2.1188262 0.6850781
2.5900881 -0.14979197 3.1978285 -0.60153115 -0.10392475 1.6180956 1.2338583 -0.46612492
-0.96115035 2.7764254 -0.16521224 2.6153283 -0.40964895 -2.0594285 1.0925145 1.0101331
-3.804288 -0.64013195 -0.61968565 -4.3781147 1.8147682 1.438009 3.725963 0.9240441
1.0719107 1.85498 2.4298496 0.27763668 0.70198154 -2.250125 -0.1777979 1.988873
1.5350713 -1.3156574 0.15172131 2.2152534 0.21261142 -3.5113268 -2.0314715 -1.158834
0.85415775 -1.9212466 -3.1415474 2.797117 -2.2126093 1.5020195 2.1300032 -0.36498323
0.6286439 -0.8553869 2.5864456 -2.8094177 -2.5585454 -0.24223953 0.8940072 2.7377694
-3.6135874 -1.3867214 -1.0148956 0.13438283 -1.9714211 2.9305534 -2.0062523 -4.7327127
0.31228063 -5.3042126 -4.1200128 0.31162027 3.0671127 0.8565871 2.2576296 -4.2326255
0.44357178 -2.5035927 2.9531403 5.67476 2.045388 -3.8245072 -4.758976 -1.1008358
6.145287 3.9424486 -1.4899234 -3.1324089 0.25106594 2.6052015 2.1076176 -4.6569195
-4.7226915 4.11128 -1.7667185 5.259355 0.7448783 -1.4987609 5.147104 -3.7210386
-3.068193 -3.637786 0.6034187 4.9408484 -2.6405272 1.6547506 4.3250284 3.1827776
-0.47313976 1.8128041 -3.0556424 -0.69260204 0.2520659 3.1132412 0.75862616 0.38237745
4.477771 4.3945303 4.4962287 2.491834 0.6338708 -0.41629505 0.42129973 -0.79072285
3.7209737 -1.2711293 4.6010103 7.161298 4.4388337 4.9232473 -4.009489 4.85005
0.4385521 -0.98113173 0.9460563 2.659126 0.5759421 4.787005 1.9772835 1.5353997
-1.0238352 0.26698083 1.6251335 -2.2629645 -5.991869 4.0470934 -1.4562807 0.40944064
-4.8518877 -3.7109127 -1.66913 -6.327418 1.4127886 1.5724704 0.68412846 2.7724752
0.096850865 6.2503448 3.0737317 -0.21032366 -1.292841 -5.2415824 -2.0098188 1.6782337
0.37415627 -0.19533306 2.2441833 -0.6375356 0.9053168 -6.230422 1.7613043 -0.27161998
00000000: 4de7 75bf 738c 383f 208a acbf 3e0f 4e3f
00000010: 04a5 47c0 0345 f3be a718 2440 91cd 7a40
00000020: 0a0c 453e 2daa c53e 1ec0 8540 88a1 bfbf
00000030: 9edb 10c0 b2cd 42c0 8a1d 7240 6301 0c40
00000040: 9b37 a9bf 6554 00c0 3816 85bf 9580 7b3e
00000050: 6f0e f6bf 5e3b 5e3f 408d b7bf 492d 2dc0
00000060: 5653 30c0 a70b 833f 7b41 45c0 c55b 35c0
00000070: d85f f4be 6ae9 19c0 715c 5640 78a2 093f
00000080: 4c29 a3bf 708c 9cbe 138c 0740 131c 173f
00000090: 72ab 7d40 29e4 52c0 c62e abbf e148 82bf
000000a0: feec 883f 3dc1 cabf 87ba 7ac0 89cb 6c3e
000000b0: 930c e93f c4a8 b53f 62ea ba3e d0ea 34bf
000000c0: cbbd 36c0 80c3 73c0 8e82 83bf f488 6340
000000d0: 7d6e 3d40 5abd 47bf 4a64 d63e 863c 2fc0
000000e0: fcee 40c0 bcdc 333f 24ec b4bf 62b4 0a3e
000000f0: 85a6 bfbf 11e7 88bf baa0 aa3f 1ee2 ec3e
00000100: 4cae aa3f 72db 7940 3612 7fc0 319b 02c0
00000110: d2e9 433f e691 b13f 795d f3bf 4a18 0fc0
00000120: bd84 783f 443b 55bf ebc2 563d 1bd7 7d40
00000130: 4618 803f 1a58 0d3f 0ce8 6e3e ab7e 2bc0
00000140: ca27 d93f c851 febf cd6e 0c40 d2db 913e
00000150: 389e 57bf 84c2 d83f d99a 07c0 4761 2f3f
00000160: 01c4 2540 1163 19be 39a9 4c40 f2fd 19bf
00000170: 80d6 d4bd c21d cf3f 12ef 9d3f eda7 eebe
00000180: f30d 76bf f4b0 3140 662d 29be 8a61 2740
00000190: 82bd d1be adcd 03c0 84d7 8b3f 0b4c 813f
000001a0: 7479 73c0 b0df 23bf b8a3 1ebf 8419 8cc0
000001b0: 534a e83f ae10 b83f 2e76 6e40 278e 6c3f
000001c0: 5f34 893f fc6f ed3f a882 1b40 6526 8e3e
000001d0: 10b5 333f 0c02 10c0 a710 36be 6493 fe3f
000001e0: 377d c43f 7667 a8bf d55c 1b3e b6c6 0d40
000001f0: cfb6 593e 94b9 60c0 a103 02c0 ac54 94bf
00000200: 15aa 5a3f 69eb f5bf 1d0f 49c0 f703 3340
00000210: 649b 0dc0 2d42 c03f f951 0840 15df babe
00000220: ceee 203f a3fa 5abf 5388 2540 80cd 33c0
00000230: 35bf 23c0 a40d 78be a8dd 643f 9d37 2f40
00000240: 0445 67c0 1680 b1bf 19e8 81bf a79b 093e
00000250: 8757 fcbf 308e 3b40 7066 00c0 6272 97c0
00000260: 3fe3 9f3e 1cbc a9c0 25d7 83c0 b18c 9f3e
00000270: 934b 4440 4b49 5b3f 017d 1040 ab71 87c0
00000280: d71b e33e dd3a 20c0 4000 3d40 a297 b540
00000290: a3e7 0240 bac4 74c0 8849 98c0 30e8 8cbf
000002a0: 31a6 c440 1451 7c40 cfb5 bebf 6379 48c0
000002b0: b78b 803e 9fbb 2640 35e3 0640 7c05 95c0
000002c0: 4a20 97c0 9b8f 8340 d523 e2bf a34c a840
000002d0: 58b0 3e3f 66d7 bfbf 13b5 a440 7f25 6ec0
000002e0: 465d 44c0 7cd1 68c0 a679 1a3f 6e1b 9e40
000002f0: 66fe 28c0 dece d33f a266 8a40 a1b2 4b40
00000300: 603f f2be f709 e83f a58f 43c0 5e4e 31bf
00000310: c80e 813e 583f 4740 5335 423f fac6 c33e
00000320: e649 8f40 fe9f 8c40 1be1 8f40 357a 1f40
00000330: 5b45 223f a024 d5be 99b4 d73e d06c 4abf
00000340: 6f24 6e40 5db4 a2bf 7a3b 9340 5a29 e540
00000350: ed0a 8e40 3e8b 9d40 bc4d 80c0 9c33 9b40
00000360: e789 e03e 732b 7bbf bf30 723f 1f2f 2a40
00000370: f170 133f 252f 9940 a017 fd3f fa87 c43f
00000380: 080d 83bf b6b1 883e 6004 d03f 69d4 10c0
00000390: 64bd bfc0 ca81 8140 6867 babf 34a2 d13e
000003a0: aa42 9bc0 987f 6dc0 0da6 d5bf 357a cac0
000003b0: 42d6 b43f b646 c93f 0b23 2f3f 3c70 3140
000003c0: bf59 c63d d302 c840 05b8 4440 165f 57be
000003d0: d07b a5bf 0bbb a7c0 dfa0 00c0 5dd0 d63f
000003e0: 6991 bf3e 6405 48be b3a0 0f40 8835 23bf
000003f0: d8c2 673f 9e5f c7c0 6b72 e13f c611 8bbe

fc_layers.4.bias f4 [128]
-2.2704623 -4.064276 2.6818564 1.4732939 -4.72108 -1.9283199 0.67722607 1.2422135
1.6989368 -3.3037155 4.8607664 -2.981728 -2.1141665 -0.1377283 -4.124134 5.0756445
-1.31623 5.0089073 -1.4322518 4.1121345 -1.7426015 4.433754 -2.3911986 0.5874415
-0.7306371 3.268247 2.3976185 -5.418399 -6.7295 3.86381 -5.579001 -3.829008
-4.554282 0.93345857 0.04212078 -2.234278 -2.5982716 -2.0235019 -1.2302461 2.7736092
3.1394515 2.9513032 -5.956845 -1.5244805 5.103376 -3.1091528 0.52296203 -4.2067657
1.1741618 5.3554068 3.156191 4.5228047 -2.82811 3.113349 -2.0384493 -4.465299
-0.2766772 1.6920662 -0.2997177 0.51815647 -5.21473 -1.6835266 -0.048463307 3.3515205
1.6095573 2.2113156 -2.410844 0.18974157 3.6802068 -4.6301517 1.6121467 4.029703
-2.5390065 3.949589 1.741731 -4.513184 4.302563 -5.9058466 -2.5867968 -5.038978
-0.32094288 -0.14696516 -2.4702418 0.4511848 4.076339 -0.9365384 -4.431726 3.417281
-3.3756425 -3.3065627 -1.8793441 -0.44447574 4.0228086 -1.988683 2.4840534 4.0080237
5.385669 -0.20611878 -6.612186 4.3416576 -6.468681 -2.8470109 3.8887856 5.208919
-3.9179587 -3.6470172 -0.9649707 0.846932 0.16716963 -3.7497818 2.2973847 4.868721
-2.36016 3.9687128 -4.9937754 0.7509344 3.8718247 -5.576796 5.2232356 1.7301027
1.2727704 -0.5163893 2.996771 -0.6468949 -3.1585903 0.30713224 -3.833645 4.923556
00000000: 414f 11c0 8d0e 82c0 89a3 2b40 e594 bc3f
00000010: 1613 97c0 30d3 f6bf b05e 2d3f da00 9f3f
00000020: c376 d93f 1370 53c0 668b 9b40 a2d4 3ec0
00000030: 814e 07c0 a608 0dbe e8f8 83c0 ae6b a240
00000040: 3a7a a8bf f848 a040 0754 b7bf 9b96 8340
00000050: 910d dfbf 50e1 8d40 6609 19c0 9162 163f
00000060: 080b 3bbf f52a 5140 9572 1940 8663 adc0
00000070: 1058 d7c0 aa48 7740 2d87 b2c0 780e 75c0
00000080: aebc 91c0 24f7 6e3f d786 2c3d 69fe 0ec0
00000090: 154a 26c0 0e81 01c0 b478 9dbf d082 3140
000000a0: c6ec 4840 27e2 3c40 799e bec0 2d22 c3bf
000000b0: db4e a340 5cfc 46c0 d7e0 053f d39d 86c0
000000c0: ef4a 963f 7e5f ab40 09ff 4940 d1ba 9040
000000d0: c1ff 34c0 1c41 4740 f475 02c0 bbe3 8ec0
000000e0: a2a8 8dbe a095 d83f 9974 99be e7a5 043f
000000f0: 11df a6c0 cd7d d7bf 7681 46bd 507f 5640
00000100: f905 ce3f 3286 0d40 454b 1ac0 9d4b 423e
00000110: 8288 6b40 342a 94c0 d35a ce3f 54f3 8040
00000120: 157f 22c0 11c6 7c40 0bf1 de3f 016c 90c0
00000130: 99ae 8940 b2fc bcc0 148e 25c0 4f3f a1c0
00000140: a052 a4be 097e 16be 7118 1ec0 b201 e73e
00000150: 5e71 8240 fbc0 6fbf b3d0 8dc0 bbb4 5a40
00000160: 870a 58c0 b99e 53c0 598e f0bf 5392 e3be
00000170: d9ba 8040 2a8d febf bbfa 1e40 bb41 8040
00000180: 6757 ac40 cd10 53be 0797 d3c0 dcee 8a40
00000190: 6fff cec0 6d35 36c0 dde1 7840 77af a640
000001a0: d6bf 7ac0 bb68 69c0 5208 77bf 89d0 583f
000001b0: 842e 2b3e 6dfc 6fc0 5a08 1340 90cc 9b40
000001c0: dd0c 17c0 64ff 7d40 02cd 9fc0 3d3d 403f
000001d0: facb 7740 1d75 b2c0 bf24 a740 0174 dd3f
000001e0: 24ea a23f 1732 04bf 19cb 3f40 e79a 25bf
000001f0: 5826 4ac0 7040 9d3e 715a 75c0 c58d 9d40

fc_layers.6.weight f4 [6, 128]
-0.2691684 0.1383844 -0.7414638 0.031685088 -1.1688508 -2.1749022 0.43649817 0.16457379
-0.003498829 -3.4956787 1.2135686 2.3318174 1.3776538 -0.07661164 -1.1918933 0.99829406
0.7290285 -0.43278718 -1.5803053 0.56293064 3.6051786 -0.7978903 -0.7062541 1.5321193
-1.2396885 -2.360582 -0.3742723 0.38380772 0.5313458 0.2782439 1.5756351 -0.48649782
-0.87288743 0.3446292 0.3219704 1.4776517 -1.4188602 1.210968 -0.26338452 0.3201714
-0.084131025 3.0438967 -1.0107025 0.056756083 -0.13233943 -0.23162916 0.48710942 0.8258291
-3.7816155 -0.381733 -0.16460827 1.5537417 0.21060048 -3.064994 -0.32210076 -4.3281636
-1.6379387 0.11959641 -0.99931484 0.016551161 1.3780817 -0.59959865 -1.6233373 -0.7421616
0.817284 -0.9189939 1.0635091 -0.72102934 -1.0365875 0.7867854 -2.6848314 -1.0894808
0.7515274 0.68021774 -3.73704 1.2789484 -0.39742076 -3.6857524 -5.219995 1.5855838
-1.5478425 0.8235294 -2.128263 2.0380144 0.55840206 -0.7265034 -0.30945352 0.3002595
3.2601988 0.31325296 -0.22746414 1.498645 -0.8161526 -1.8453058 -0.26286012 -0.007950278
0.2525463 0.2214515 -1.5984615 0.3992026 -0.8822596 0.2625025 -3.6669776 0.9053076
-1.40986 -0.4096592 -0.42559564 4.06484 0.53203547 0.924789 -0.84607494 -0.28544146
-0.29831606 0.119179524 0.8751219 -0.05674226 -1.5023702 1.085189 -0.012488525 -1.0352123
0.88804245 -3.4296758 -3.3800836 0.5967913 -3.1626186 3.850044 0.69736636 0.5635215
0.19278589 -0.54212785 0.022877734 -0.33588517 -0.9368436 -2.5526924 0.5850687 0.19110984
-0.7040394 0.33138123 -0.28172827 -0.41772547 -0.14628413 0.88346624 0.44739246 -0.7043247
-0.4902845 -0.026391737 0.84515685 -0.07899242 1.8361759 -1.2337309 0.2869043 0.5677152
-0.14081062 0.029394526 -1.1783978 0.043105848 2.8476255 0.7371126 -0.13968109 -0.7414936
-0.115721315 -1.6306813 0.268405 -0.34151685 -6.7932096 0.52752304 0.27787206 -0.07049027
-0.7794878 2.1988568 -1.5103884 -0.37764812 -0.1116751 -0.008884406 0.26895997 -0.38926232
0.5534611 -0.11219169 0.20625344 0.8182603 0.26996732 0.5357477 -0.56027514 0.7518568
-0.32890207 0.8618056 0.46775776 0.62983805 0.40919796 -0.50104034 0.8288707 -0.82976556
0.49334657 0.81353086 -1.1451238 0.23159799 0.046014458 -0.8072801 1.3254285 0.16838966
0.17283292 0.8699412 -5.459797 -0.4466856 -0.048549704 2.2004943 5.2392535 -0.33390552
0.41974208 -1.1788236 -0.38851857 -0.27460685 -0.49746916 -0.26903424 0.821588 0.24107651
0.36286592 1.0685973 0.07474207 -1.5112809 0.9647182 -0.3006432 -0.045405533 0.18913162
-0.39732802 0.7578083 1.8296362 0.47936666 -1.239661 0.93884593 1.3840005 -1.9553903
0.15029545 0.12366618 0.43394175 3.7750206 -0.58032686 0.14011925 0.61156064 -0.023010023
-0.3675969 0.7446812 0.37318045 0.077413775 0.7620821 -0.925895 -0.3484462 1.3637823
1.0798872 1.692627 2.2231314 1.2160256 1.5129968 1.6598758 -0.3285419 0.21284953
00000000: 71d0 89be a4b4 0d3e 92d0 3dbf 39c8 013d
00000010: e79c 95bf 9931 0bc0 b07c df3e 0886 283e
00000020: 9c4c 65bb 33b9 5fc0 3756 9b3f 7f3c 1540
00000030: f656 b03f 90e6 9cbd f68f 98bf 3390 7f3f
00000040: 9da1 3a3f 4896 ddbe 7247 cabf 391c 103f
00000050: 3fbb 6640 8a42 4cbf 12cd 34bf 7c1c c43f
00000060: 1dae 9ebf c713 17c0 9ea0 bfbe 7282 c43e
00000070: 4706 083f fc75 8e3e 69ae c93f 3e16 f9be
00000080: 8d75 5fbf 3d73 b03e 4ed9 a43e b123 bd3f
00000090: 369d b5bf 0001 9b3f 56da 86be 81ed a33e
000000a0: e34c acbd 34cf 4240 b35e 81bf 1179 683d
000000b0: fd83 07be 3230 6dbe 6866 f93e 8969 533f
000000c0: fd05 72c0 8272 c3be 128f 28be 02e1 c63f
000000d0: a7a7 573e dd28 44c0 64ea a4be 5180 8ac0
000000e0: faa7 d1bf f6ee f43d 19d3 7fbf 4d96 873c
000000f0: fb64 b03f 4c7f 19bf 84c9 cfbf 4dfe 3dbf
00000100: 8639 513f 2f43 6bbf 1121 883f 6195 38bf
00000110: e6ae 84bf c56a 493f 47d4 2bc0 1b74 8bbf
00000120: 1a64 403f c022 2e3f aa2b 6fc0 95b4 a33f
00000130: bc7a cbbe 5ee3 6bc0 330a a7c0 69f4 ca3f
00000140: b41f c6bf d3d2 523f 7635 08c0 d46e 0240
00000150: 70f3 0e3f 20fc 39bf b170 9ebe 9dbb 993e
00000160: 19a7 5040 b162 a03e 5cec 68be 99d3 bf3f
00000170: 60ef 50bf fb32 ecbf 9a95 86be e241 02bc
00000180: c04d 813e 2fc4 623e 639a ccbf 4864 cc3e
00000190: c4db 61bf ba66 863e c3af 6ac0 3dc2 673f
000001a0: 4b76 b4bf dabe d1be ace7 d9be 2b13 8240
000001b0: 7a33 083f f9be 6c3f 5e98 58bf 6225 92be
000001c0: e2bc 98be 6514 f43d fd07 603f 926a 68bd
000001d0: ab4d c0bf 79e7 8a3f ac9c 4cbc d681 84bf
000001e0: c056 633f cf7f 5bc0 4a53 58c0 51c7 183f
000001f0: 5868 4ac0 1f67 7640 9a86 323f f242 103f
00000200: aa69 453e e4c8 0abf 166a bb3c 24f9 abbe
00000210: fbd4 6fbf 505f 23c0 10c7 153f 4cb2 433e
00000220: ed3b 34bf cdaa a93e b03e 90be 1de0 d5be
00000230: 82cb 15be d82a 623f a010 e53e a04e 34bf
00000240: 9206 fbbe 7c33 d8bc 335c 583f c7c6 a1bd
00000250: d007 eb3f e5ea 9dbf 1fe5 923e c955 113f
00000260: a930 10be cacc f03c bdd5 96bf c28f 303d
00000270: 7f3f 3640 69b3 3c3f 8f08 0fbe 86d2 3dbf
00000280: 4cff ecbd 2aba d0bf 616c 893e 4cdb aebe
00000290: f961 d9c0 c00b 073f 3f45 8e3e 345d 90bd
000002a0: 838c 47bf 12ba 0c40 6854 c1bf 185b c1be
000002b0: eab5 e4bd e68f 11bc 1fb5 893e 644d c7be
000002c0: a0af 0d3f c2c4 e5bd 1a34 533e 8279 513f
000002d0: 2839 8a3e c326 093f 316e 0fbf b079 403f
000002e0: da65 a8be 4b9f 5c3f f27d ef3e 113d 213f
000002f0: 6582 d13e 2e44 00bf df30 543f 846b 54bf
00000300: ec97 fc3e 8f43 503f 6b93 92bf 0628 6d3e
00000310: a879 3c3d e9a9 4ebf a4a7 a93f 576e 2c3e
00000320: 1dfb 303e 77b4 5e3f a8b6 aec0 fab3 e4be
00000330: 0edc 46bd e6d4 0c40 f7a7 a740 aaf5 aabe
00000340: 6fe8 d63e b1e3 96bf e8eb c6be 4599 8cbe
00000350: 47b4 febe dbbe 89be 9753 523f c3dc 763e
00000360: 90c9 b93e ccc7 883f 5f12 993d a771 c1bf
00000370: c6f7 763f e8ed 99be 27fb 39bd b8ab 413e
00000380: 946e cbbe baff 413f 8531 ea3f 8c6f f53e
00000390: 36ad 9ebf 3558 703f ee26 b13f 3b4a fabf
000003a0: 0de7 193e b244 fd3d 9d2d de3e f099 7140
000003b0: 4d90 14bf 6c7b 0f3e 3d8f 1c3f 847f bcbc
000003c0: a935 bcbe 6da3 3e3f 8211 bf3e 1d8b 9e3d
000003d0: d017 433f 7407 6dbf 8a67 b2be 6b90 ae3f
000003e0: be39 8a3f 00a8 d83f c947 0e40 baa6 9b3f
000003f0: e1a9 c13f cf76 d43f a536 a8be 3af5 593e

fc_layers.6.bias f4 [6]
-3.479416 0.6687102 0.07771596 0.3242332 0.5411394 -0.5694049
00000000: c0ae 5ec0 9730 2b3f 8c29 9f3d e501 a63e
00000010: 1d88 0a3f 85c4 11bf

fc_layers.1.weight f4 [125]
6.205054 9.453638 -5.232532 -1.0217083 4.3422213 6.036367 -6.8054194 2.442596
7.3291698 -1.6564487 1.4378419 2.1105435 6.4784737 1.0 1.0 1.0
1.0 1.0 1.0 1.0 1.0 1.0 1.0 1.0
1.0 1.0 1.0 1.0 1.0 1.0 1.0 1.0
1.0 1.0 1.0 1.0 1.0 1.0 1.0 1.0
1.0 1.0 1.0 1.0 1.0 1.0 1.0 1.0
1.0 1.0 1.0 1.0 14.349361 5.5691414 4.1895623 7.0618668
-0.9224292 6.390976 1.4164265 -6.8360314 7.181252 6.6770225 0.85150856 4.38069
1.3760227 1.1238362 0.8237834 4.076364 -0.46995163 1.0 1.0 1.0
1.0 1.0 1.0 1.0 1.0 1.0 1.0 1.0
1.0 1.0 1.0 1.0 1.0 1.0 1.0 1.0
1.0 1.0 1.0 1.0 1.0 1.0 1.0 1.0
1.0 1.0 1.0 1.0 1.0 1.0 1.0 1.0
1.0 1.0 1.0 1.0 13.209796 5.6880655 4.78815 5.739103
1.0290455 7.997869 1.0 11.037068 -1.0383586 -1.9932444 3.1840456 6.4620676
21.405481 2.9933426 -4.2728224 3.2594182 2.6491187
00000000: cd8f c640 1a42 1741 e770 a7c0 56c7 82bf
00000010: 7af3 8a40 eb29 c140 ffc5 d9c0 7e53 1c40
00000020: 8f88 ea40 8306 d4bf 340b b83f 2513 0740
00000030: a84f cf40 0000 803f 0000 803f 0000 803f
00000040: 0000 803f 0000 803f 0000 803f 0000 803f
00000050: 0000 803f 0000 803f 0000 803f 0000 803f
00000060: 0000 803f 0000 803f 0000 803f 0000 803f
00000070: 0000 803f 0000 803f 0000 803f 0000 803f
00000080: 0000 803f 0000 803f 0000 803f 0000 803f
00000090: 0000 803f 0000 803f 0000 803f 0000 803f
000000a0: 0000 803f 0000 803f 0000 803f 0000 803f
000000b0: 0000 803f 0000 803f 0000 803f 0000 803f
000000c0: 0000 803f 0000 803f 0000 803f 0000 803f
000000d0: fc96 6541 6836 b240 e510 8640 d0fa e140
000000e0: 5224 6cbf e082 cc40 774d b53f c5c0 dac0
000000f0: d1cc e540 2baa d540 77fc 593f 9d2e 8c40
00000100: 8321 b03f ddd9 8f3f 78e3 523f 9371 8240
00000110: 809d f0be 0000 803f 0000 803f 0000 803f
00000120: 0000 803f 0000 803f 0000 803f 0000 803f
00000130: 0000 803f 0000 803f 0000 803f 0000 803f
00000140: 0000 803f 0000 803f 0000 803f 0000 803f
00000150: 0000 803f 0000 803f 0000 803f 0000 803f
00000160: 0000 803f 0000 803f 0000 803f 0000 803f
00000170: 0000 803f 0000 803f 0000 803f 0000 803f
00000180: 0000 803f 0000 803f 0000 803f 0000 803f
00000190: 0000 803f 0000 803f 0000 803f 0000 803f
000001a0: 0000 803f 0000 803f 0000 803f 0000 803f
000001b0: 535b 5341 a204 b640 8638 9940 bba6 b740
000001c0: c3b7 833f 8bee ff40 0000 803f d597 3041
000001d0: efe8 84bf a222 ffbf 67c7 4b40 42c9 ce40
000001e0: 6d3e ab41 ed92 3f40 f6ba 88c0 4f9a 5040
000001f0: 298b 2940

fc_layers.1.bias f4 [125]
4.7419534 6.594533 -6.482558 2.6439538 -2.0957007 4.9662557 -0.32502273 -7.1847367
0.20998465 -3.077748 -0.08832778 -5.382308 -2.6621072 3.5853393 0.5919275 0.3952737
2.9602113 -1.9155507 0.38688302 0.7135033 -0.6007036 -0.030350022 -1.3376086 -0.2878391
2.8084219 1.7589341 2.1934621 1.1324866 -0.44599363 -1.1709713 0.6569766 3.40309
-0.6749986 2.1372867 -1.8544607 1.1857499 4.0056076 1.6530135 1.8138478 -1.5601906
-1.185263 0.975761 -1.8460612 1.5540489 -1.6777947 1.309457 0.50852656 -3.8378189
2.0865746 -2.2114575 -1.1513973 -2.4097557 -1.5629871 -0.026029328 1.9908662 -0.53322023
-2.219896 -0.28358552 1.529421 -5.000398 4.481601 0.7933905 -0.7313862 1.5861154
-4.933656 -1.0647602 -3.1115127 2.9175627 4.860086 -0.80840296 -1.2371107 -3.6209507
1.3562304 -0.02796011 -3.9554594 0.6803523 -2.7480419 1.558284 0.5704522 -1.4784888
-1.931593 -2.714952 2.112481 -1.4588794 3.6384718 3.3200858 0.43685922 -1.959808
-1.3705783 -1.4903237 0.32445234 1.5894461 -2.7067719 0.8479103 -0.2930252 -1.8193095
-0.13577685 -1.5544511 2.545162 1.3015095 2.0140636 2.0817926 2.7421188 -1.9721335
-1.3321873 0.05967844 -0.7119033 0.5786928 -1.8529112 0.45056924 2.0656974 -1.1894128
1.2151831 0.9794972 1.9316345 5.0948577 0.688745 0.020964738 -2.0687037 -1.7474241
0.13061681 2.231626 -4.095708 2.1102433 -0.111611545
00000000: 15be 9740 6a06 d340 1d71 cfc0 8a36 2940
00000010: f61f 06c0 91eb 9e40 6169 a6be 5de9 e5c0
00000020: 3706 573e d3f9 44c0 32e5 b4bd de3b acc0
00000030: f75f 2ac0 3376 6540 9088 173f 5061 ca3e
00000040: 1a74 3d40 c430 f5bf 8815 c63e 27a8 363f
00000050: b6c7 19bf 9ca0 f8bc c236 abbf a65f 93be
00000060: 2fbd 3340 c124 e13f af61 0c40 52f5 903f
00000070: 4759 e4be 63e2 95bf 9e2f 283f 3acc 5940
00000080: b5cc 2cbf 4ec9 0840 f85e edbf a7c6 973f
00000090: f02d 8040 f295 d33f 2a2c e83f 53b4 c7bf
000000a0: b3b6 97bf 79cb 793f bc4b ecbf 13eb c63f
000000b0: fac1 d6bf 499c a73f cc2e 023f d39e 75c0
000000c0: 708a 0540 8588 0dc0 fd60 93bf 7039 1ac0
000000d0: f60f c8bf 753b d5bc b4d4 fe3f 1f81 08bf
000000e0: c712 0ec0 1f32 91be 11c4 c33f 4303 a0c0
000000f0: 4769 8f40 a41b 4b3f 203c 3bbf d405 cb3f
00000100: 83e0 9dc0 104a 88bf 0623 47c0 59b9 3a40
00000110: d385 9b40 7ff3 4ebf a559 9ebf a8bd 67c0
00000120: f598 ad3f 9a0c e5bc 3f26 7dc0 912b 2e3f
00000130: ebdf 2fc0 da75 c73f 2809 123f 1f3f bdbf
00000140: 703e f7bf c6c1 2dc0 e432 0740 8fbc babf
00000150: b9dc 6840 497c 5440 03ac df3e fdda fabf
00000160: 1c6f afbf edc2 bebf 9e1e a63e f872 cb3f
00000170: c03b 2dc0 a610 593f 6607 96be 22df e8bf
00000180: 1609 0bbe 41f8 c6bf efe3 2240 dd97 a63f
00000190: 6be6 0040 173c 0540 e07e 2f40 df6e fcbf
000001a0: 1d85 aabf 6171 743d 4b3f 36bf 3625 143f
000001b0: 322c edbf 03b1 e63e 6334 0440 ae3e 98bf
000001c0: 1f8b 9b3f 54c0 7a3f cd3f f73f 1309 a340
000001d0: 9851 303f 3ebe ab3c a465 04c0 98ab dfbf
000001e0: 6ac0 053e f6d2 0e40 0a10 83c0 3a0e 0740
000001f0: 9894 e4bd

fc_layers.1.running_mean f4 [125]
0.047129005 0.05275885 0.04668216 0.055833083 0.048426125 0.05389397 0.04984234 0.048133012
0.04540299 0.04971514 0.050813332 0.047707513 0.0482659 0.0 0.0 0.0
0.0 0.0 0.0 0.0 0.0 0.0 0.0 0.0
0.0 0.0 0.0 0.0 0.0 0.0 0.0 0.0
0.0 0.0 0.0 0.0 0.0 0.0 0.0 0.0
0.0 0.0 0.0 0.0 0.0 0.0 0.0 0.0
0.0 0.0 0.0 0.0 0.15453842 0.16085844 0.158205 0.17100155
0.16296093 0.15685213 0.16574524 0.1493214 0.16332422 0.16650815 0.15900373 0.15098812
0.15491869 0.15556148 0.13623631 0.14481571 0.13376391 0.0 0.0 0.0
0.0 0.0 0.0 0.0 0.0 0.0 0.0 0.0
0.0 0.0 0.0 0.0 0.0 0.0 0.0 0.0
0.0 0.0 0.0 0.0 0.0 0.0 0.0 0.0
0.0 0.0 0.0 0.0 0.0 0.0 0.0 0.0
0.0 0.0 0.0 0.0 0.15453842 0.16085844 0.158205 0.17100155
0.428005 15.535925 0.99999976 0.43160152 1.2003007 0.79969937 40.14446 0.49400714
0.49310276 0.12678847 1.0417885 5.7791533 34.365303
00000000: 580a 413d aa19 583d cb35 3f3d 3bb1 643d
00000010: 795a 463d ecbf 5c3d 7b27 4c3d 1f27 453d
00000020: 7cf8 393d 1aa2 4b3d a421 503d f468 433d
00000030: 77b2 453d 0000 0000 0000 0000 0000 0000
00000040: 0000 0000 0000 0000 0000 0000 0000 0000
00000050: 0000 0000 0000 0000 0000 0000 0000 0000
00000060: 0000 0000 0000 0000 0000 0000 0000 0000
00000070: 0000 0000 0000 0000 0000 0000 0000 0000
00000080: 0000 0000 0000 0000 0000 0000 0000 0000
00000090: 0000 0000 0000 0000 0000 0000 0000 0000
000000a0: 0000 0000 0000 0000 0000 0000 0000 0000
000000b0: 0000 0000 0000 0000 0000 0000 0000 0000
000000c0: 0000 0000 0000 0000 0000 0000 0000 0000
000000d0: 523f 1e3e 13b8 243e 7e00 223e 081b 2f3e
000000e0: 3bdf 263e d89d 203e 1fb9 293e b6e7 183e
000000f0: 773e 273e 1d81 2a3e e0d1 223e a19c 1a3e
00000100: 01a3 1e3e 824b 1f3e 8881 0b3e 924a 143e
00000110: 68f9 083e 0000 0000 0000 0000 0000 0000
00000120: 0000 0000 0000 0000 0000 0000 0000 0000
00000130: 0000 0000 0000 0000 0000 0000 0000 0000
00000140: 0000 0000 0000 0000 0000 0000 0000 0000
00000150: 0000 0000 0000 0000 0000 0000 0000 0000
00000160: 0000 0000 0000 0000 0000 0000 0000 0000
00000170: 0000 0000 0000 0000 0000 0000 0000 0000
00000180: 0000 0000 0000 0000 0000 0000 0000 0000
00000190: 0000 0000 0000 0000 0000 0000 0000 0000
000001a0: 0000 0000 0000 0000 0000 0000 0000 0000
000001b0: 523f 1e3e 13b8 243e 7e00 223e 081b 2f3e
000001c0: 7923 db3e 2693 7841 fcff 7f3f e0fa dc3e
000001d0: 74a3 993f 19b9 4c3f ed93 2042 81ee fc3e
000001e0: f777 fc3e d6d4 013e 5359 853f d3ee b840
000001f0: 1276 0942

fc_layers.1.running_var f4 [125]
0.053053614 0.05613425 0.05343177 0.05987775 0.057377156 0.059582796 0.054673098 0.0585741
0.05146074 0.05412092 0.059874367 0.052051105 0.054665048 6e-45 6e-45 6e-45
6e-45 6e-45 6e-45 6e-45 6e-45 6e-45 6e-45 6e-45
6e-45 6e-45 6e-45 6e-45 6e-45 6e-45 6e-45 6e-45
6e-45 6e-45 6e-45 6e-45 6e-45 6e-45 6e-45 6e-45
6e-45 6e-45 6e-45 6e-45 6e-45 6e-45 6e-45 6e-45
6e-45 6e-45 6e-45 6e-45 0.22111529 0.22200641 0.22267142 0.25356445
0.14929704 0.13668492 0.14836012 0.13258962 0.14893553 0.14651585 0.1411228 0.13453157
0.136573 0.13754511 0.12278991 0.13192342 0.120277174 6e-45 6e-45 6e-45
6e-45 6e-45 6e-45 6e-45 6e-45 6e-45 6e-45 6e-45
6e-45 6e-45 6e-45 6e-45 6e-45 6e-45 6e-45 6e-45
6e-45 6e-45 6e-45 6e-45 6e-45 6e-45 6e-45 6e-45
6e-45 6e-45 6e-45 6e-45 6e-45 6e-45 6e-45 6e-45
6e-45 6e-45 6e-45 6e-45 0.22111529 0.22200641 0.22267142 0.25356445
0.11926226 186.48448 6e-45 0.10674569 0.16014597 0.16014597 2259.7522 0.009128616
0.015693137 0.20547517 1.2739683 158.92712 1855.4885
00000000: bf4e 593d 07ed 653d 46db 5a3d 5f42 753d
00000010: 4f04 6b3d 170d 743d e6f0 5f3d 65eb 6f3d
00000020: 7fc8 523d e6ad 5d3d d33e 753d 8a33 553d
00000030: 75e8 5f3d 0400 0000 0400 0000 0400 0000
00000040: 0400 0000 0400 0000 0400 0000 0400 0000
00000050: 0400 0000 0400 0000 0400 0000 0400 0000
00000060: 0400 0000 0400 0000 0400 0000 0400 0000
00000070: 0400 0000 0400 0000 0400 0000 0400 0000
00000080: 0400 0000 0400 0000 0400 0000 0400 0000
00000090: 0400 0000 0400 0000 0400 0000 0400 0000
000000a0: 0400 0000 0400 0000 0400 0000 0400 0000
000000b0: 0400 0000 0400 0000 0400 0000 0400 0000
000000c0: 0400 0000 0400 0000 0400 0000 0400 0000
000000d0: 0c6c 623e a655 633e fa03 643e 33d3 813e
000000e0: 53e1 183e 22f7 0b3e b7eb 173e 93c5 073e
000000f0: 8e82 183e 4008 163e 7f82 103e a5c2 093e
00000100: cbd9 0b3e a0d8 0c3e 4779 fb3d ef16 073e
00000110: e153 f63d 0400 0000 0400 0000 0400 0000
00000120: 0400 0000 0400 0000 0400 0000 0400 0000
00000130: 0400 0000 0400 0000 0400 0000 0400 0000
00000140: 0400 0000 0400 0000 0400 0000 0400 0000
00000150: 0400 0000 0400 0000 0400 0000 0400 0000
00000160: 0400 0000 0400 0000 0400 0000 0400 0000
00000170: 0400 0000 0400 0000 0400 0000 0400 0000
00000180: 0400 0000 0400 0000 0400 0000 0400 0000
00000190: 0400 0000 0400 0000 0400 0000 0400 0000
000001a0: 0400 0000 0400 0000 0400 0000 0400 0000
000001b0: 0c6c 623e a655 633e fa03 643e 33d3 813e
000001c0: c63f f43d 077c 3a43 0400 0000 7c9d da3d
000001d0: 4efd 233e 4efd 233e 093c 0d45 3190 153c
000001e0: e58e 803c 1568 523e 6511 a33f 58ed 1e43
000001f0: a2ef e744

fc_layers.2.weight f4 [128, 125]
-1.5945884 -3.5084233 1.3355697 -2.1814058 2.1809447 3.1632547 3.661287 -1.1003357
-1.6945683 -0.09970948 -0.8448127 -1.4102445 -2.1506104 5.145069 -5.0748143 -2.411755
2.504182 8.286374 11.168241 7.073841 -0.6841056 0.8977949 1.2625885 -8.829542
0.28232023 8.909975 5.3647265 1.2650648 3.0952575 0.57030797 -6.8407235 2.0319898
-0.008850942 0.9419953 -0.106527425 8.936868 0.81659347 8.221125 7.3692317 -10.765975
0.4825596 -3.029787 -1.595483 -0.034058403 -9.672519 8.524752 6.831524 -0.77880144
8.469615 -0.74403405 1.6407945 -6.7348495 -1.2196639 -2.1230326 -2.0647755 -2.1213543
1.389608 -0.6562051 3.8542976 -4.5756483 -0.82989836 -1.3363271 -0.4534589 1.3824081
-0.8498208 -5.656557 2.3620229 -1.7933865 -2.442336 -10.363151 -0.8735255 -1.9206867
-0.7410084 -3.2073672 -0.62622446 10.344511 -0.8867909 9.3101015 -5.0335135 -10.062248
-0.96026367 -5.9078083 1.9081752 -2.0058496 5.633956 1.7273653 0.7524353 -9.4802
0.2786217 -9.497316 6.3089347 -8.338277 -6.051698 1.8793411 4.5111 0.6493837
2.18886 1.0087312 0.940303 -1.791157 2.274392 3.6352458 3.2422597 -0.11491702
0.88593173 5.8903637 -1.4831063 -3.5175827 -0.6514228 -1.5170795 -2.2719016 -2.2362525
2.4059403 -4.3361135 8.582867 3.8846908 -2.1458197 1.6852691 1.1965405 4.2673025
3.4328558 0.50812596 2.8331497 -1.4193137 2.399663 -0.91101736 -9.625325 11.503131
-2.6108735 -3.570042 0.15364107 2.4871943 4.3892007 -2.8200321 3.8125734 -5.49514
7.239094 3.3744884 -6.571551 -1.3280896 -2.3677936 -1.3744652 1.5406306 -3.6028354
-3.7577405 4.0366716 4.491973 5.4378233 3.7813144 -4.250158 -6.272192 -5.890719
-3.2711391 -0.006565237 4.3999963 2.2775166 -1.3205901 0.01876968 -1.0521693 4.7270474
-4.5201983 -4.0013685 -4.6282606 -5.181523 5.272995 3.7422564 0.32798496 3.655371
-4.9869223 4.81672 -4.560009 -3.5687232 3.6944158 -5.7363653 1.3483617 3.2861795
6.377891 -4.4506817 -5.9069433 -6.0223093 -2.0332274 -4.3757024 -4.56225 0.28999108
0.30488423 -0.9654498 -2.8229458 4.295995 8.77877 0.10684779 0.9863493 5.2308044
-1.4156221 -6.0092006 4.789483 -1.0332482 1.5143881 -5.3517165 -3.1635742 3.6452925
-3.2693043 0.23735335 -6.222621 2.6033714 5.1055164 4.1205716 5.1315823 -0.75382763
0.21721824 -5.6284566 -2.0741816 -3.5459833 5.580326 2.5163496 5.0279565 -3.4867423
-1.6756443 3.8899536 0.8264388 3.0307107 6.071595 -0.21509546 1.3221089 -1.6721795
-5.0102654 0.26275575 -5.450091 -0.8487959 3.2577143 -1.5155226 -1.143607 0.2538895
-0.51056856 -3.4282732 -6.9120393 -5.5955205 -0.5937114 -4.1859984 3.5603724 -5.6021323
-7.890071 -2.8493838 1.7377615 -2.2530656 2.3421607 -1.0539408 -8.570247 -0.10333812
-3.9056168 -0.88685703 1.7421818 1.0327917 -6.6201234 -4.2986517 -1.291035 4.913243
00000000: 791b ccbf 028a 60c0 f3f3 aa3f 279c 0bc0
00000010: 9994 0b40 c472 4a40 8752 6a40 cdd7 8cbf
00000020: 9de7 d8bf 7c34 ccbd a545 58bf e482 b4bf
00000030: 9aa3 09c0 68a4 a440 e164 a2c0 325a 1ac0
00000040: 8544 2040 fd94 0441 1db1 3241 e85c e240
00000050: 8b21 2fbf e3d5 653f 809c a13f ce45 0dc1
00000060: 478c 903e 428f 0e41 d7ab ab40 a5ed a13f
00000070: b318 4640 b4ff 113f 35e7 dac0 1f0c 0240
00000080: 8b03 11bc 9b26 713f 0d2b dabd 69fd 0e41
00000090: 450c 513f ba89 0341 bfd0 eb40 6f41 2cc1
000000a0: 0d12 f73e 08e8 41c0 c938 ccbf d380 0bbd
000000b0: a3c2 1ac1 6265 0841 d89b da40 885f 47bf
000000c0: 8b83 0741 0479 3ebf 8e05 d23f e383 d7c0
000000d0: f21d 9cbf c4df 07c0 4825 04c0 45c4 07c0
000000e0: adde b13f 0ffd 27bf d0ac 7640 b66b 92c0
000000f0: 3874 54bf c40c abbf c42b e8be c0f2 b03f
00000100: db8d 59bf 8402 b5c0 622b 1740 b08d e5bf
00000110: 3c4f 1cc0 77cf 25c1 5e9f 5fbf 10d9 f5bf
00000120: bab2 3dbf 8145 4dc0 3f50 20bf 1e83 2541
00000130: ba04 63bf 2df6 1441 8b12 a1c0 f8fe 20c1
00000140: d7d3 75bf c40c bdc0 163f f43f d75f 00c0
00000150: 5e49 b440 4e1a dd3f 9a9f 403f e6ae 17c1
00000160: 81a7 8e3e 02f5 17c1 cbe2 c940 9569 05c1
00000170: 83a7 c1c0 408e f03f ee5a 9040 033e 263f
00000180: 4816 0c40 1b1e 813f b3b7 703f a244 e5bf
00000190: a38f 1140 dea7 6840 2f81 4f40 9d59 ebbd
000001a0: 6ccc 623f dc7d bc40 6dd6 bdbf 1320 61c0
000001b0: a5c3 26bf a92f c2bf d666 11c0 c31e 0fc0
000001c0: edfa 1940 71c1 8ac0 6c53 0941 c69e 7840
000001d0: 1c55 09c0 e6b6 d73f 3d28 993f be8d 8840
000001e0: e9b3 5b40 8b14 023f 5352 3540 12ac b5bf
000001f0: 1494 1940 6f38 69bf 5501 1ac1 d30c 3841
00000200: 8d18 27c0 917b 64c0 1654 1d3e 312e 1f40
00000210: 5574 8c40 687b 34c0 3401 7440 30d8 afc0
00000220: a8a6 e740 9ef7 5740 254a d2c0 d7fe a9bf
00000230: ee89 17c0 7aee afbf 6233 c53f db94 66c0
00000240: d27e 70c0 6a2c 8140 3ebe 8f40 a602 ae40
00000250: 0e01 7240 4b01 88c0 ccb5 c8c0 c580 bcc0
00000260: 585a 51c0 3321 d7bb c5cc 8c40 d5c2 1140
00000270: 1909 a9bf dfc2 993c 7cad 86bf f943 9740
00000280: 77a5 90c0 360b 80c0 b61a 94c0 09cf a5c0
00000290: 60bc a840 2181 6f40 a5ed a73e 99f1 6940
000002a0: de94 9fc0 9222 9a40 98eb 91c0 f665 64c0
000002b0: 4f71 6c40 4e90 b7c0 1e97 ac3f c450 5240
000002c0: af17 cc40 fc6b 8ec0 ae05 bdc0 c2b6 c0c0
000002d0: 6620 02c0 c105 8cc0 f4fd 91c0 b679 943e
000002e0: c919 9c3e b827 77bf 25ab 34c0 cb78 8940
000002f0: d875 0c41 04d3 da3d 6381 7c3f c062 a740
00000300: 1b33 b5bf 5f4b c0c0 7243 9940 7a41 84bf
00000310: 78d7 c13f 4341 abc0 0078 4ac0 794c 6940
00000320: 483c 51c0 c20c 733e b61f c7c0 a39d 2640
00000330: 6460 a340 b9db 8340 ec35 a440 d9fa 40bf
00000340: 756e 5e3e 511c b4c0 64bf 04c0 64f1 62c0
00000350: 0892 b240 df0b 2140 05e5 a040 c926 5fc0
00000360: 837b d6bf 00f5 7840 7e91 533f 2af7 4140
00000370: 824a c240 fc41 5cbe dd3a a93f fa09 d6bf
00000380: 1854 a0c0 ec87 863e 2567 aec0 b04a 59bf
00000390: 647e 5040 a5fc c1bf b761 92bf cefd 813e
000003a0: 9fb4 02bf d468 5bc0 6d2f ddc0 810e b3c0
000003b0: 78fd 17bf b3f3 85c0 24dd 6340 ab44 b3c0
000003c0: 767b fcc0 4e5c 36c0 f86e de3f 3a32 10c0
000003d0: f6e5 1540 88e7 86bf bb1f 09c1 f0a2 d3bd
000003e0: a0f5 79c0 1009 63bf d0ff de3f 8532 843f
000003f0: 0dd8 d3c0 8e8e 89c0 a340 a5bf 4939 9d40
