models/nolimit_holdem_nfsp_pytorch/model.pth (torch_old, 824553 bytes, 60 tensors)

fc_layers.1.weight f4 [125]
000000 00 00 80 3f 00 00 80 3f 00 00 80 3f 00 00 80 3f
       1.0 1.0 1.0 1.0
000010 00 00 80 3f 00 00 80 3f 00 00 80 3f 00 00 80 3f
       1.0 1.0 1.0 1.0
000020 00 00 80 3f 00 00 80 3f 00 00 80 3f 00 00 80 3f
       1.0 1.0 1.0 1.0
000030 00 00 80 3f 00 00 80 3f 00 00 80 3f 00 00 80 3f
       1.0 1.0 1.0 1.0
000040 00 00 80 3f 00 00 80 3f 00 00 80 3f 00 00 80 3f
       1.0 1.0 1.0 1.0
000050 00 00 80 3f 00 00 80 3f 00 00 80 3f 00 00 80 3f
       1.0 1.0 1.0 1.0
000060 00 00 80 3f 00 00 80 3f 00 00 80 3f 00 00 80 3f
       1.0 1.0 1.0 1.0
000070 00 00 80 3f 00 00 80 3f 00 00 80 3f 00 00 80 3f
       1.0 1.0 1.0 1.0
000080 00 00 80 3f 00 00 80 3f 00 00 80 3f 00 00 80 3f
       1.0 1.0 1.0 1.0
000090 00 00 80 3f 00 00 80 3f 00 00 80 3f 00 00 80 3f
       1.0 1.0 1.0 1.0
0000a0 00 00 80 3f 00 00 80 3f 00 00 80 3f 00 00 80 3f
       1.0 1.0 1.0 1.0
0000b0 00 00 80 3f 00 00 80 3f 00 00 80 3f 00 00 80 3f
       1.0 1.0 1.0 1.0
0000c0 00 00 80 3f 00 00 80 3f 00 00 80 3f 00 00 80 3f
       1.0 1.0 1.0 1.0
0000d0 00 00 80 3f 00 00 80 3f 00 00 80 3f 00 00 80 3f
       1.0 1.0 1.0 1.0
0000e0 00 00 80 3f 00 00 80 3f 00 00 80 3f 00 00 80 3f
       1.0 1.0 1.0 1.0
0000f0 00 00 80 3f 00 00 80 3f 00 00 80 3f 00 00 80 3f
       1.0 1.0 1.0 1.0
000100 00 00 80 3f 00 00 80 3f 00 00 80 3f 00 00 80 3f
       1.0 1.0 1.0 1.0
000110 00 00 80 3f 00 00 80 3f 00 00 80 3f 00 00 80 3f
       1.0 1.0 1.0 1.0
000120 00 00 80 3f 00 00 80 3f 00 00 80 3f 00 00 80 3f
       1.0 1.0 1.0 1.0
000130 00 00 80 3f 00 00 80 3f 00 00 80 3f 00 00 80 3f
       1.0 1.0 1.0 1.0
000140 00 00 80 3f 00 00 80 3f 00 00 80 3f 00 00 80 3f
       1.0 1.0 1.0 1.0
000150 00 00 80 3f 00 00 80 3f 00 00 80 3f 00 00 80 3f
       1.0 1.0 1.0 1.0
000160 00 00 80 3f 00 00 80 3f 00 00 80 3f 00 00 80 3f
       1.0 1.0 1.0 1.0
000170 00 00 80 3f 00 00 80 3f 00 00 80 3f 00 00 80 3f
       1.0 1.0 1.0 1.0
000180 00 00 80 3f 00 00 80 3f 00 00 80 3f 00 00 80 3f
       1.0 1.0 1.0 1.0
000190 00 00 80 3f 00 00 80 3f 00 00 80 3f 00 00 80 3f
       1.0 1.0 1.0 1.0
0001a0 00 00 80 3f 00 00 80 3f 00 00 80 3f 00 00 80 3f
       1.0 1.0 1.0 1.0
0001b0 00 00 80 3f 00 00 80 3f 00 00 80 3f 00 00 80 3f
       1.0 1.0 1.0 1.0
0001c0 00 00 80 3f 00 00 80 3f 00 00 80 3f 00 00 80 3f
       1.0 1.0 1.0 1.0
0001d0 00 00 80 3f 00 00 80 3f 00 00 80 3f 00 00 80 3f
       1.0 1.0 1.0 1.0
0001e0 00 00 80 3f 00 00 80 3f 00 00 80 3f 00 00 80 3f
       1.0 1.0 1.0 1.0
0001f0 00 00 80 3f
       1.0

fc_layers.1.bias f4 [125]
000000 00 00 00 00 00 00 00 00 00 00 00 00 00 00 00 00
       0.0 0.0 0.0 0.0
000010 00 00 00 00 00 00 00 00 00 00 00 00 00 00 00 00
       0.0 0.0 0.0 0.0
000020 00 00 00 00 00 00 00 00 00 00 00 00 00 00 00 00
       0.0 0.0 0.0 0.0
000030 00 00 00 00 00 00 00 00 00 00 00 00 00 00 00 00
       0.0 0.0 0.0 0.0
000040 00 00 00 00 00 00 00 00 00 00 00 00 00 00 00 00
       0.0 0.0 0.0 0.0
000050 00 00 00 00 00 00 00 00 00 00 00 00 00 00 00 00
       0.0 0.0 0.0 0.0
000060 00 00 00 00 00 00 00 00 00 00 00 00 00 00 00 00
       0.0 0.0 0.0 0.0
000070 00 00 00 00 00 00 00 00 00 00 00 00 00 00 00 00
       0.0 0.0 0.0 0.0
000080 00 00 00 00 00 00 00 00 00 00 00 00 00 00 00 00
       0.0 0.0 0.0 0.0
000090 00 00 00 00 00 00 00 00 00 00 00 00 00 00 00 00
       0.0 0.0 0.0 0.0
0000a0 00 00 00 00 00 00 00 00 00 00 00 00 00 00 00 00
       0.0 0.0 0.0 0.0
0000b0 00 00 00 00 00 00 00 00 00 00 00 00 00 00 00 00
       0.0 0.0 0.0 0.0
0000c0 00 00 00 00 00 00 00 00 00 00 00 00 00 00 00 00
       0.0 0.0 0.0 0.0
0000d0 00 00 00 00 00 00 00 00 00 00 00 00 00 00 00 00
       0.0 0.0 0.0 0.0
0000e0 00 00 00 00 00 00 00 00 00 00 00 00 00 00 00 00
       0.0 0.0 0.0 0.0
0000f0 00 00 00 00 00 00 00 00 00 00 00 00 00 00 00 00
       0.0 0.0 0.0 0.0
000100 00 00 00 00 00 00 00 00 00 00 00 00 00 00 00 00
       0.0 0.0 0.0 0.0
000110 00 00 00 00 00 00 00 00 00 00 00 00 00 00 00 00
       0.0 0.0 0.0 0.0
000120 00 00 00 00 00 00 00 00 00 00 00 00 00 00 00 00
       0.0 0.0 0.0 0.0
000130 00 00 00 00 00 00 00 00 00 00 00 00 00 00 00 00
       0.0 0.0 0.0 0.0
000140 00 00 00 00 00 00 00 00 00 00 00 00 00 00 00 00
       0.0 0.0 0.0 0.0
000150 00 00 00 00 00 00 00 00 00 00 00 00 00 00 00 00
       0.0 0.0 0.0 0.0
000160 00 00 00 00 00 00 00 00 00 00 00 00 00 00 00 00
       0.0 0.0 0.0 0.0
000170 00 00 00 00 00 00 00 00 00 00 00 00 00 00 00 00
       0.0 0.0 0.0 0.0
000180 00 00 00 00 00 00 00 00 00 00 00 00 00 00 00 00
       0.0 0.0 0.0 0.0
000190 00 00 00 00 00 00 00 00 00 00 00 00 00 00 00 00
       0.0 0.0 0.0 0.0
0001a0 00 00 00 00 00 00 00 00 00 00 00 00 00 00 00 00
       0.0 0.0 0.0 0.0
0001b0 00 00 00 00 00 00 00 00 00 00 00 00 00 00 00 00
       0.0 0.0 0.0 0.0
0001c0 00 00 00 00 00 00 00 00 00 00 00 00 00 00 00 00
       0.0 0.0 0.0 0.0
0001d0 00 00 00 00 00 00 00 00 00 00 00 00 00 00 00 00
       0.0 0.0 0.0 0.0
0001e0 00 00 00 00 00 00 00 00 00 00 00 00 00 00 00 00
       0.0 0.0 0.0 0.0
0001f0 00 00 00 00
       0.0

fc_layers.1.running_mean f4 [125]
000000 00 00 00 00 00 00 00 00 00 00 00 00 00 00 00 00
       0.0 0.0 0.0 0.0
000010 00 00 00 00 00 00 00 00 00 00 00 00 00 00 00 00
       0.0 0.0 0.0 0.0
000020 00 00 00 00 00 00 00 00 00 00 00 00 00 00 00 00
       0.0 0.0 0.0 0.0
000030 00 00 00 00 00 00 00 00 00 00 00 00 00 00 00 00
       0.0 0.0 0.0 0.0
000040 00 00 00 00 00 00 00 00 00 00 00 00 00 00 00 00
       0.0 0.0 0.0 0.0
000050 00 00 00 00 00 00 00 00 00 00 00 00 00 00 00 00
       0.0 0.0 0.0 0.0
000060 00 00 00 00 00 00 00 00 00 00 00 00 00 00 00 00
       0.0 0.0 0.0 0.0
000070 00 00 00 00 00 00 00 00 00 00 00 00 00 00 00 00
       0.0 0.0 0.0 0.0
000080 00 00 00 00 00 00 00 00 00 00 00 00 00 00 00 00
       0.0 0.0 0.0 0.0
000090 00 00 00 00 00 00 00 00 00 00 00 00 00 00 00 00
       0.0 0.0 0.0 0.0
0000a0 00 00 00 00 00 00 00 00 00 00 00 00 00 00 00 00
       0.0 0.0 0.0 0.0
0000b0 00 00 00 00 00 00 00 00 00 00 00 00 00 00 00 00
       0.0 0.0 0.0 0.0
0000c0 00 00 00 00 00 00 00 00 00 00 00 00 00 00 00 00
       0.0 0.0 0.0 0.0
0000d0 00 00 00 00 00 00 00 00 00 00 00 00 00 00 00 00
       0.0 0.0 0.0 0.0
0000e0 00 00 00 00 00 00 00 00 00 00 00 00 00 00 00 00
       0.0 0.0 0.0 0.0
0000f0 00 00 00 00 00 00 00 00 00 00 00 00 00 00 00 00
       0.0 0.0 0.0 0.0
000100 00 00 00 00 00 00 00 00 00 00 00 00 00 00 00 00
       0.0 0.0 0.0 0.0
000110 00 00 00 00 00 00 00 00 00 00 00 00 00 00 00 00
       0.0 0.0 0.0 0.0
000120 00 00 00 00 00 00 00 00 00 00 00 00 00 00 00 00
       0.0 0.0 0.0 0.0
000130 00 00 00 00 00 00 00 00 00 00 00 00 00 00 00 00
       0.0 0.0 0.0 0.0
000140 00 00 00 00 00 00 00 00 00 00 00 00 00 00 00 00
       0.0 0.0 0.0 0.0
000150 00 00 00 00 00 00 00 00 00 00 00 00 00 00 00 00
       0.0 0.0 0.0 0.0
000160 00 00 00 00 00 00 00 00 00 00 00 00 00 00 00 00
       0.0 0.0 0.0 0.0
000170 00 00 00 00 00 00 00 00 00 00 00 00 00 00 00 00
       0.0 0.0 0.0 0.0
000180 00 00 00 00 00 00 00 00 00 00 00 00 00 00 00 00
       0.0 0.0 0.0 0.0
000190 00 00 00 00 00 00 00 00 00 00 00 00 00 00 00 00
       0.0 0.0 0.0 0.0
0001a0 00 00 00 00 00 00 00 00 00 00 00 00 00 00 00 00
       0.0 0.0 0.0 0.0
0001b0 00 00 00 00 00 00 00 00 00 00 00 00 00 00 00 00
       0.0 0.0 0.0 0.0
0001c0 00 00 00 00 00 00 00 00 00 00 00 00 00 00 00 00
       0.0 0.0 0.0 0.0
0001d0 00 00 00 00 00 00 00 00 00 00 00 00 00 00 00 00
       0.0 0.0 0.0 0.0
0001e0 00 00 00 00 00 00 00 00 00 00 00 00 00 00 00 00
       0.0 0.0 0.0 0.0
0001f0 00 00 00 00
       0.0

fc_layers.1.running_var f4 [125]
000000 00 00 80 3f 00 00 80 3f 00 00 80 3f 00 00 80 3f
       1.0 1.0 1.0 1.0
000010 00 00 80 3f 00 00 80 3f 00 00 80 3f 00 00 80 3f
       1.0 1.0 1.0 1.0
000020 00 00 80 3f 00 00 80 3f 00 00 80 3f 00 00 80 3f
       1.0 1.0 1.0 1.0
000030 00 00 80 3f 00 00 80 3f 00 00 80 3f 00 00 80 3f
       1.0 1.0 1.0 1.0
000040 00 00 80 3f 00 00 80 3f 00 00 80 3f 00 00 80 3f
       1.0 1.0 1.0 1.0
000050 00 00 80 3f 00 00 80 3f 00 00 80 3f 00 00 80 3f
       1.0 1.0 1.0 1.0
000060 00 00 80 3f 00 00 80 3f 00 00 80 3f 00 00 80 3f
       1.0 1.0 1.0 1.0
000070 00 00 80 3f 00 00 80 3f 00 00 80 3f 00 00 80 3f
       1.0 1.0 1.0 1.0
000080 00 00 80 3f 00 00 80 3f 00 00 80 3f 00 00 80 3f
       1.0 1.0 1.0 1.0
000090 00 00 80 3f 00 00 80 3f 00 00 80 3f 00 00 80 3f
       1.0 1.0 1.0 1.0
0000a0 00 00 80 3f 00 00 80 3f 00 00 80 3f 00 00 80 3f
       1.0 1.0 1.0 1.0
0000b0 00 00 80 3f 00 00 80 3f 00 00 80 3f 00 00 80 3f
       1.0 1.0 1.0 1.0
0000c0 00 00 80 3f 00 00 80 3f 00 00 80 3f 00 00 80 3f
       1.0 1.0 1.0 1.0
0000d0 00 00 80 3f 00 00 80 3f 00 00 80 3f 00 00 80 3f
       1.0 1.0 1.0 1.0
0000e0 00 00 80 3f 00 00 80 3f 00 00 80 3f 00 00 80 3f
       1.0 1.0 1.0 1.0
0000f0 00 00 80 3f 00 00 80 3f 00 00 80 3f 00 00 80 3f
       1.0 1.0 1.0 1.0
000100 00 00 80 3f 00 00 80 3f 00 00 80 3f 00 00 80 3f
       1.0 1.0 1.0 1.0
000110 00 00 80 3f 00 00 80 3f 00 00 80 3f 00 00 80 3f
       1.0 1.0 1.0 1.0
000120 00 00 80 3f 00 00 80 3f 00 00 80 3f 00 00 80 3f
       1.0 1.0 1.0 1.0
000130 00 00 80 3f 00 00 80 3f 00 00 80 3f 00 00 80 3f
       1.0 1.0 1.0 1.0
000140 00 00 80 3f 00 00 80 3f 00 00 80 3f 00 00 80 3f
       1.0 1.0 1.0 1.0
000150 00 00 80 3f 00 00 80 3f 00 00 80 3f 00 00 80 3f
       1.0 1.0 1.0 1.0
000160 00 00 80 3f 00 00 80 3f 00 00 80 3f 00 00 80 3f
       1.0 1.0 1.0 1.0
000170 00 00 80 3f 00 00 80 3f 00 00 80 3f 00 00 80 3f
       1.0 1.0 1.0 1.0
000180 00 00 80 3f 00 00 80 3f 00 00 80 3f 00 00 80 3f
       1.0 1.0 1.0 1.0
000190 00 00 80 3f 00 00 80 3f 00 00 80 3f 00 00 80 3f
       1.0 1.0 1.0 1.0
0001a0 00 00 80 3f 00 00 80 3f 00 00 80 3f 00 00 80 3f
       1.0 1.0 1.0 1.0
0001b0 00 00 80 3f 00 00 80 3f 00 00 80 3f 00 00 80 3f
       1.0 1.0 1.0 1.0
0001c0 00 00 80 3f 00 00 80 3f 00 00 80 3f 00 00 80 3f
       1.0 1.0 1.0 1.0
0001d0 00 00 80 3f 00 00 80 3f 00 00 80 3f 00 00 80 3f
       1.0 1.0 1.0 1.0
0001e0 00 00 80 3f 00 00 80 3f 00 00 80 3f 00 00 80 3f
       1.0 1.0 1.0 1.0
0001f0 00 00 80 3f
       1.0

fc_layers.2.weight f4 [128, 125]
000000 94 57 77 bd 14 29 89 bd 46 55 14 3e 50 20 ef 3d
       -0.060386255 -0.06697288 0.14485654 0.11676085
000010 ba 2f 09 3e 48 ac 87 3d 26 99 b1 bd 78 58 1f 3d
       0.13397112 0.06624657 -0.08671789 0.03890273
000020 80 7c b7 3a e4 54 ae 3d 38 0f bd 3d 64 a3 6c bd
       0.0013998896 0.08512285 0.09231418 -0.05777301
000030 20 9e 15 3d 5c c3 0c 3d 06 6d 17 be 4a 9c 49 bd
       0.036527753 0.034365997 -0.14787683 -0.049221314
000040 00 73 98 3c 14 42 95 bd 1c 91 ca bd a6 bc c8 bd
       0.018609524 -0.07287994 -0.09890959 -0.09801607
000050 d6 1d 98 3d 80 f9 43 bd 5f dc a2 bd 74 80 82 3d
       0.07427566 -0.047845364 -0.07952189 0.06372157
000060 ca 4e 02 3e 54 6d 1e bd ce dc 4d bd 00 02 97 ba
       0.12725368 -0.038678482 -0.050259404 -0.0011520982
000070 86 5c e1 bd 5e fc 0f be 2e 70 d8 bd 4e 1e 2b bd
       -0.110039756 -0.14061114 -0.105682716 -0.041776948
000080 80 f5 da ba 98 56 89 bd e0 dc 19 3c 90 d6 02 3d
       -0.0016705245 -0.067059696 0.00939104 0.031942904
000090 5e 4b 52 bd 90 b3 57 bc b8 c5 1a be e0 3d c5 bb
       -0.051341407 -0.01316537 -0.15114486 -0.006019339
0000a0 28 72 d5 bc ee 65 6e bd c0 70 49 3d 90 47 06 be
       -0.02605541 -0.058202676 0.049179792 -0.13113236
0000b0 42 ac 0b be 35 30 1c be c6 cc 98 3d 4c fe 71 bd
       -0.1363993 -0.15252765 0.074609324 -0.059080407
0000c0 10 04 db 3c 9d 4b 1b be c8 04 33 3d 08 70 db 3d
       0.026735336 -0.15165563 0.04370573 0.10714728
0000d0 98 66 cf 3d 2a 9c 08 3e ca 01 bc bd 20 3f 99 3d
       0.1012699 0.13340822 -0.09180029 0.07482743
0000e0 b8 7e c4 3c e6 83 21 bd 38 e2 d8 bd a6 ff c0 bd
       0.023986205 -0.03943243 -0.10590023 -0.09423761
0000f0 d0 e6 68 bd 8a 25 9f 3d e0 d5 d0 3c 0c 2c 34 3d
       -0.056860745 0.07770832 0.025492609 0.04398732
000100 24 03 0b 3d 2b 01 95 bd b4 84 92 3d 00 ce ce 3d
       0.033938542 -0.072756134 0.07154217 0.10097885
000110 4c 61 ff bd 8c 64 f1 3d 14 94 0f bd 03 91 95 bd
       -0.1246973 0.11786756 -0.035053328 -0.073030494
000120 af 4e da bd c8 38 09 3e 76 b3 84 3d 90 40 41 3d
       -0.10659539 0.13400567 0.06479542 0.047180712
000130 66 6c c1 3d 08 9a d8 bd 98 af ea 3d 80 8b 26 3d
       0.094445035 -0.10576254 0.11459273 0.04066038
000140 40 31 bf 3d 00 20 ec 39 c0 9b 5b 3c e4 d4 01 3e
       0.093355656 0.0004503727 0.013403833 0.12678868
000150 1c 66 7f 3d 4e 51 53 bd f8 a6 65 bd 94 1f f2 3d
       0.06235324 -0.05159121 -0.056067437 0.11822429
000160 8a 6a 07 be 68 b3 12 3e ea c5 a9 bd 02 96 b6 3d
       -0.13224235 0.1432625 -0.08289702 0.089153305
000170 a8 23 ea 3d 58 78 f7 3d 62 4f 22 bd 1a d3 e9 bd
       0.11432582 0.120835006 -0.039626487 -0.114172176
000180 b2 6d 14 3e 94 09 12 3e 2e ab 11 bd 80 81 ac bd
       0.1449497 0.14261466 -0.03556364 -0.08423138
000190 e2 5c 99 3d 38 be 9e bc e0 22 b0 bd c0 1e 1d 3b
       0.07488419 -0.019377813 -0.08600402 0.0023974627
0001a0 ee 7d e0 bd 0d b5 8c bd 69 94 83 bd c0 0c 6a 3b
       -0.10961519 -0.0687047 -0.06424791 0.0035713166
0001b0 dc 3a c6 3d 38 bb 04 3e 68 95 13 3e c4 c5 ff 3d
       0.09679195 0.12962043 0.14412463 0.12488893
0001c0 f4 a4 15 be f2 c6 a6 3d 68 99 ce bd d0 5d bd bd
       -0.14613706 0.081434146 -0.10087854 -0.09246409
0001d0 9c 09 0b 3d 6c ae 08 3d d0 e6 a2 3c 7c d7 02 3e
       0.03394471 0.033369467 0.01988545 0.12777513
0001e0 89 d9 b7 bd 7a 08 77 bd 30 c8 43 3d 66 83 9b 3d
       -0.089770384 -0.06031082 0.047798336 0.07593422
0001f0 0c 19 d3 bd 04 21 9c bd b0 17 10 3c 50 2e da 3d
       -0.10307512 -0.07623485 0.00879471 0.10653365
000200 51 40 99 bd 8a 51 1c be d0 6e a8 3d 22 f8 01 be
       -0.074829705 -0.1526548 0.08224261 -0.12692311
000210 ac 42 26 bd f9 2b a9 bd 0a 8c 9a bd 0c df f7 bd
       -0.040590927 -0.0826034 -0.075462416 -0.1210309
000220 b0 fb 01 3c 20 00 0d 3e b2 40 aa 3d ac ff f5 bc
       0.007933542 0.13769579 0.08313121 -0.03002914
000230 2c f5 a2 3d ce f4 9e 3d 5e e0 a4 3d d0 d0 9a 3c
       0.07956919 0.077615365 0.08050607 0.018898398
000240 4c 43 5c 3d c7 77 0f be f0 aa b1 bd 77 18 dd bd
       0.053775117 -0.14010535 -0.08675182 -0.10795682
000250 88 48 19 3d 94 65 d4 3d 14 6f 14 3d f4 e6 10 3d
       0.037422687 0.10370937 0.036238745 0.035376504
000260 a2 75 cf bd 18 2b 0a bd f0 a9 e1 3d f2 b5 8c 3d
       -0.101298586 -0.033732504 0.11018741 0.06870641
000270 50 10 c9 3d ed cb ee bd 00 34 8a b9 cc b7 f4 bd
       0.098175645 -0.116599895 -0.00026360154 -0.11949119
000280 24 fe ac bd f3 99 b1 bd 38 65 98 bc 60 e6 59 3c
       -0.08446911 -0.086719416 -0.018602952 0.013299555
000290 84 c1 9e bd 50 19 ef 3d 4c 44 fe bd d8 18 03 3d
       -0.07751754 0.1167475 -0.1241537 0.032006115
0002a0 20 8a c2 3b f0 01 a7 3d 94 22 06 bd d0 73 28 bc
       0.005936876 0.081546664 -0.03274782 -0.010281518
0002b0 b4 cb 07 3e 60 98 10 3e 88 18 fe bd 44 36 63 3d
       0.132613 0.14120626 -0.12407023 0.055471674
0002c0 d0 60 d4 bc ba 9e cc bd b8 6f 6a bd 92 b3 18 3e
       -0.02592507 -0.09991212 -0.05723545 0.1491225
0002d0 f8 e4 4b 3d 92 39 be 3d 82 64 11 be 00 00 d5 b7
       0.04977891 0.092883244 -0.14198497 -2.5391579e-05
0002e0 7e 11 bf bd 2e 58 93 bd d6 38 06 be a0 58 50 bc
       -0.09329508 -0.07194553 -0.13107619 -0.012716442
0002f0 b2 10 06 be 34 cd ad 3d c0 12 14 3e d6 ce 84 bd
       -0.13092306 0.08486405 0.14460278 -0.06484763
000300 a0 ef 42 3c 50 1a d3 bc f4 36 9d 3d 33 34 a8 bd
       0.011897951 -0.025769383 0.07676497 -0.08213081
000310 70 31 b7 bd e0 01 19 3d d0 97 52 bd cf 22 03 be
       -0.08944976 0.037355304 -0.05141431 -0.12806247
000320 20 10 0b 3e 72 ac 15 bd 8d ad 12 be c8 bb 05 3e
       0.1358037 -0.03654141 -0.14324017 0.13059914
000330 5c 5f 7a 3d 4e 03 09 3e ae 18 19 3e 8a 15 13 be
       0.061126098 0.13380167 0.14950821 -0.14363685
000340 59 91 1a be 32 f9 1d bd e9 a1 14 be d0 fb 22 bc
       -0.15094508 -0.03856773 -0.14514889 -0.009947732
000350 ec 4c 14 be c4 c1 04 bd 3c 25 d9 bd f8 be f0 bd
       -0.14482468 -0.03241135 -0.10602805 -0.117551744
000360 c0 dd 19 bb 50 da 49 3c 77 41 ac bd e6 c9 0b 3e
       -0.002347812 0.012320116 -0.08410924 0.13651237
000370 32 ca be 3d 2a b7 d0 bd 68 6c ce bc 20 b7 af bd
       0.093159094 -0.10191186 -0.025198177 -0.0857985
000380 61 48 de bd d0 7f e0 3c 84 06 e6 3d b0 10 b4 bd
       -0.10853649 0.027404696 0.112317115 -0.087922454
000390 a2 2f 13 3e 18 75 6c 3d 48 8f 17 3e 46 f2 be bd
       0.14373639 0.057728857 0.14800751 -0.09323554
0003a0 20 fa 88 3c b0 c2 75 3d 40 3b 21 3b e0 7b c8 bb
       0.016720831 0.06000012 0.0024601966 -0.0061182827
0003b0 36 bd 3a bd 1c 14 0c 3d 50 fb 84 3d 7c 22 44 bd
       -0.0455906 0.034198865 0.064932466 -0.04788445
0003c0 80 91 e0 ba 0e b6 13 3e f0 4d 63 bc 6c 6e 0e 3d
       -0.0017133206 0.14424917 -0.013873562 0.034773275
0003d0 00 0a c6 39 18 4e f9 3d da 7f 7a bd 20 20 86 bc
       0.00037772954 0.12173098 -0.061157085 -0.01637274
0003e0 e0 97 49 3c e4 aa ae bd 2c e0 33 3d cc 7e 5f 3d
       0.012304276 -0.085286885 0.04391496 0.054564282
0003f0 3c 63 fe 3d 42 5a 09 3e e0 37 73 3c 82 ff 1e bd
       0.12421271 0.13413337 0.014844865 -0.03881789

fc_layers.2.bias f4 [128]
000000 8e 41 21 3d ff 60 04 bd aa 83 a0 bd 3c de b5 bd
       0.03936916 -0.032319065 -0.07837613 -0.088802785
000010 5d c3 85 3d d5 f7 9f bd 75 81 a8 3d 94 7d a6 bc
       0.06531403 -0.07810942 0.08227817 -0.020323552
000020 c8 83 27 bd ce 74 6e 3d 9a 3f 39 3d 22 12 78 3d
       -0.04089716 0.058216862 0.04522667 0.060564168
000030 28 55 78 3c 80 ae 5a bb 28 f2 34 bc a2 43 2e 3d
       0.015157022 -0.003336817 -0.011044063 0.04254497
000040 0e bc 8c bd cf 00 82 3d 4d eb 18 bd e9 f5 b3 3d
       -0.06871806 0.063478105 -0.037333775 0.08787138
000050 6c 13 d1 bc 44 e2 3d bd 17 bb ad 3d ae 57 28 3d
       -0.025521956 -0.04635836 0.0848295 0.041099243
000060 b0 1b 26 bd 62 62 ae bd 9d 33 85 bd 4a 35 29 3d
       -0.04055375 -0.08514859 -0.06503985 0.041310586
000070 ec 45 3c bd 4a 94 22 3d 78 f1 68 bc a1 9e 93 bd
       -0.04596512 0.0396922 -0.014217727 -0.072079904
000080 48 ff c5 3c f8 7b 0c bd 0f 80 27 bd e0 79 99 3b
       0.02416958 -0.034297913 -0.04089361 0.004683718
000090 ae bd 47 3d 08 58 85 bd a0 f1 4e 3c 52 c8 15 bd
       0.048764877 -0.06510931 0.01263085 -0.036567993
0000a0 f2 9d 5b 3d eb 88 2c bd 83 72 85 3d 24 ad d3 3c
       0.053617425 -0.042122763 0.06515982 0.025839396
0000b0 ae c3 aa bd 66 27 75 3d b1 dc 92 3d 14 d3 f0 3c
       -0.08338104 0.059852026 0.07171 0.029397525
0000c0 8c d2 a5 bd 3c db 9a bd f4 b9 18 bd 4d 83 5a bd
       -0.08096799 -0.07561347 -0.037286714 -0.053347874
0000d0 29 d2 91 3d 86 60 52 3d 25 ee 53 bd 44 70 9b 3c
       0.07120163 0.051361583 -0.051740784 0.01897443
0000e0 d0 7a b4 bd 33 2b 13 bd c4 41 c6 3c d0 53 c6 bb
       -0.08812487 -0.03592987 0.024201281 -0.0060524717
0000f0 56 d3 78 3d a0 72 42 3b 1e 46 31 3d 08 24 4c 3c
       0.06074842 0.0029670373 0.04327976 0.012459762
000100 92 71 44 3d b9 1c a3 3d 5e f4 58 3d 97 58 b2 bd
       0.04795987 0.07964463 0.05296742 -0.087083034
000110 13 c0 a3 3d c0 f8 d7 bc 56 61 20 3d 2d ac 27 bd
       0.079956196 -0.02636373 0.039155327 -0.040935684
000120 f9 c5 b2 3d b3 5b 8b 3d 8b fa 97 3d 47 7f 81 3d
       0.087291665 0.068045996 0.07420834 0.06323104
000130 67 b9 af 3d d6 36 02 3d 2e eb 20 3d 8b e6 90 3d
       0.085802846 0.031790577 0.039286785 0.070752226
000140 41 dd 2e bd 3b 2a 9b 3d 01 de b3 3d c0 d2 62 3b
       -0.042691473 0.07576414 0.08782578 0.003461048
000150 ba 18 24 3d 31 fd a1 3d 04 eb 4d bd 14 ff 88 bc
       0.040062644 0.079096206 -0.050272956 -0.016723193
000160 e4 e4 7e bd 62 66 63 3d 13 18 0b bd 42 e5 59 3d
       -0.062230006 0.05551756 -0.033958506 0.053197153
000170 62 9e 41 3d f0 e2 89 bb 2b d9 85 3d ff f5 ac 3d
       0.047270186 -0.0042079613 0.06535562 0.084453575
000180 b3 b8 83 3d 1c 17 dd bc a3 d4 9e 3d 99 19 08 bd
       0.06431713 -0.026988558 0.07755401 -0.033227537
000190 7a f7 39 bd 02 65 22 3d 7a 72 a8 bd b5 e7 96 3d
       -0.045402028 0.03964711 -0.0822496 0.07368413
0001a0 cf e5 83 bd 31 ae b0 3d 85 d9 b3 bd 60 c7 8f bc
       -0.06440317 0.086269744 -0.08781723 -0.017551124
0001b0 53 67 64 bd ac 13 81 bc 99 44 9d 3d 00 2c d8 bc
       -0.0557626 -0.01575645 0.076790996 -0.026388168
0001c0 65 29 9d 3d b0 eb 0a bc f8 4c 83 bd 29 93 92 3d
       0.07673911 -0.008479044 -0.06411165 0.07156975
0001d0 e8 37 a9 bd 07 00 9f 3d 2a 41 7d 3d c7 9f a1 bd
       -0.082626164 0.07763677 0.061829723 -0.07891803
0001e0 8f 81 b3 bd 22 f1 5b bd 64 9d 94 bd a0 8b d3 3b
       -0.08764946 -0.05369676 -0.072565824 0.0064558536
0001f0 50 eb af 3c fc 30 a5 bc 45 a7 63 bd 40 1f 0e 3c
       0.02147451 -0.02016496 -0.055579443 0.008674443

fc_layers.4.weight f4 [128, 128]
000000 de bd 62 bd 48 c5 35 bd 1e 2d d4 3d 48 22 db bd
       -0.055356853 -0.044377595 0.10360168 -0.10699898
000010 3e 95 49 bd c0 1d 0c 3b c4 9a 1d 3d 00 c9 08 ba
       -0.049214594 0.0021380037 0.038477674 -0.00052179396
000020 66 bb 0c be 38 52 f3 3c 90 42 2e 3d 7e 22 cd 3d
       -0.13743362 0.02970229 0.042543948 0.100163445
000030 50 e3 ed bd 3e 53 7d bd d4 bf 1a bd 20 3e 74 bc
       -0.11615622 -0.061846964 -0.037780598 -0.01490739
000040 19 55 03 3e aa 3c da 3d 98 d9 71 3d 86 c7 87 bd
       0.12825431 0.10656102 0.059045404 -0.06629853
000050 64 08 95 3d 74 1d cb bd 0e 71 7f bd e4 cf 94 3d
       0.07276991 -0.09917727 -0.062363677 0.072662145
000060 c7 8e 06 be cc 62 a1 3d 0c 9f 12 bd ef 06 d5 bd
       -0.13140403 0.07880172 -0.03579621 -0.10401713
000070 d7 36 04 3e 46 1a 42 bd e0 1d 5b bc 70 91 6b 3d
       0.12911545 -0.047388338 -0.013373822 0.057511747
000080 8d 6b 1b 3e 80 71 07 be c8 0a 3b bd 03 7e bd bd
       0.15177746 -0.1322689 -0.04566458 -0.092525505
000090 52 97 aa 3d 1c fc 71 3d 52 a3 c0 bd 48 de a9 bd
       0.08329643 0.05907832 -0.09406151 -0.0829435
0000a0 31 67 05 3e 60 8d f6 bd 41 5c 0d be 80 8f 25 3d
       0.13027646 -0.12038684 -0.13804723 0.040420055
0000b0 df e8 03 be 7e f9 ca 3d a4 e9 aa bd 43 16 16 3e
       -0.12881802 0.09910868 -0.08345345 0.1465693
0000c0 6d 87 03 3e f4 9b db bd 2a bb a6 bd de ad 68 bd
       0.1284463 -0.10723105 -0.081411675 -0.056806438
0000d0 1b 1e 9e bd 18 1d 15 be 07 bf 1b 3e 6f 45 b8 bd
       -0.07720586 -0.1456188 0.1520959 -0.089976184
0000e0 82 2b e3 3d e8 d1 41 3d b6 29 04 be b4 a8 e6 bc
       0.11092283 0.047319323 -0.12906536 -0.028156616
0000f0 48 a5 a8 bd f0 cd aa bd 6b 58 d6 bd 54 1e 25 bd
       -0.0823465 -0.08340061 -0.10466083 -0.040312126
000100 28 c1 d0 3c 6e ef cf 3d b0 d0 09 3d 69 c9 1a 3e
       0.02548273 0.101530895 0.033646286 0.15115894
000110 a0 39 73 bc 27 1a 14 3e 48 b5 82 bc 0a 02 1b bd
       -0.014845282 0.14463101 -0.015955582 -0.03784374
000120 3e 12 39 bd 90 c5 73 3d 77 de 13 3e cf 83 03 be
       -0.045183413 0.059514582 0.14440332 -0.1284325
000130 f2 03 e3 3d 90 1e ff bc 40 79 8b bc 20 10 c6 3b
       0.11084737 -0.031142503 -0.01702559 0.0060444027
000140 9b 9c 11 3e 24 6b 75 bd 02 af b4 3d 60 35 11 be
       0.14219896 -0.05991663 0.088224426 -0.14180517
000150 28 62 e0 bc 08 50 90 3d e8 80 9e 3c 9c 23 f8 bc
       -0.027390555 0.07046515 0.019348577 -0.030290417
000160 d4 6c aa bd 18 5a 09 be 30 40 d3 3c 8c cc 70 bd
       -0.083215386 -0.13413274 0.025787443 -0.05878882
000170 10 d0 a7 3c a8 42 01 bd 38 3b 36 3d 72 52 e1 3d
       0.020484954 -0.03155771 0.04449007 0.11002053
000180 a0 06 3d bd 16 3c 08 bd a0 0d 4a 3d ae ee 0d bd
       -0.046148896 -0.033260427 0.0493294 -0.03465145
000190 e4 15 bd 3d 26 7f ee bd 88 70 45 bd c0 77 ce bb
       0.09232691 -0.116453454 -0.04820302 -0.0063008964
0001a0 4f 26 07 be ce 97 e7 3d 6f 94 05 be c8 d1 eb bd
       -0.13198207 0.11308251 -0.13044904 -0.11514622
0001b0 50 8a 0f be 6e 3d d4 3d b6 02 15 bd 40 22 83 bd
       -0.14017606 0.10363279 -0.03637954 -0.06403017
0001c0 0e 60 f5 bd 24 a0 5f 3d fd c0 0d 3e 1c 45 b5 3d
       -0.119812116 0.05459608 0.1384315 0.08851072
0001d0 52 cc 0e bd 7d 34 17 3e 18 56 b2 bc e2 25 aa 3d
       -0.034862824 0.14766116 -0.021769568 0.08308007
0001e0 90 71 5a 3d 83 5f 17 3e be c2 2c bd 88 1e 0e be
       0.053330958 0.14782529 -0.042177908 -0.13878834
0001f0 b0 b4 1b bc 66 f7 5d bd 9a ae a3 3d da 76 fa 3d
       -0.0095035285 -0.054191016 0.07992287 0.122297004
000200 48 88 d5 bd 38 de fe bc 57 15 fc bd 4b 1e a6 bd
       -0.10426384 -0.031111822 -0.12308758 -0.08111247
000210 42 a6 6c bd 86 e1 a1 bd b0 87 b8 3c 97 6e 92 bd
       -0.057775743 -0.07904343 0.022525638 -0.071499996
000220 c0 02 ff 3b 1d 58 d6 bd da 42 0c be 10 fc 9c bd
       0.0077823102 -0.10466025 -0.13697377 -0.076652646
000230 a0 00 9d 3b 2a fd 88 3d 65 a2 a9 bd b0 d1 e9 bd
       0.0047913343 0.06688912 -0.082829274 -0.11416948
000240 46 2c db 3d f0 98 b9 bd 96 f6 fc 3d ac 75 2d 3d
       0.10701804 -0.09062374 0.1235172 0.04234855
000250 e6 93 0d bd 28 7c 44 bd a7 3b 9a bd 08 13 f3 3c
       -0.034564875 -0.047969967 -0.07530909 0.02967216
000260 0c 0f 00 be e0 ac c6 bb c9 2d 13 3e 92 94 96 bd
       -0.1250574 -0.006063089 0.14372934 -0.07352556
000270 b7 f0 87 bd d2 36 dd bd 40 9d 25 bb d2 55 f6 3d
       -0.066377096 -0.10801472 -0.002527073 0.12028088
000280 74 1f f1 bc 3f a8 09 3e d2 df d6 bd b0 2a 2c 3c
       -0.029433943 0.13443087 -0.10491909 0.010508224
000290 b0 3c 5d 3d 8e 5c f2 bd 00 35 9e 3a bd 88 0e 3e
       0.054012954 -0.1183406 0.0012070239 0.13919349
0002a0 d8 94 70 bd fd 52 05 3e f6 bf 16 bd ac bd 99 3d
       -0.0587357 0.13019939 -0.036804162 0.0750688
0002b0 58 18 ad bc b6 09 5a bd d0 03 0e 3d 7f ec 04 3e
       -0.021129772 -0.053231917 0.034671605 0.12980841
0002c0 20 9e f7 3c 48 fd e3 3c 6f f4 06 3e bc ef 96 bd
       0.030226767 0.027830735 0.13179182 -0.073699445
0002d0 8c 29 18 bd 0e e4 9d 3d e8 a0 87 3c 98 2e a2 3c
       -0.037148997 0.077095136 0.016556218 0.019797608
0002e0 8a 4e d2 3d 18 26 b1 3d a2 0c fe 3d 80 0f ba 3d
       0.102688864 0.08649844 0.12404753 0.09084988
0002f0 38 0f b6 bc 4c 11 c1 3d ac cb 0c bd 92 27 9e bd
       -0.022224054 0.09427127 -0.034373924 -0.07722391
000300 28 35 45 3d 46 95 19 be 74 87 b4 3d d6 e1 dd 3d
       0.048146397 -0.1499835 0.08814898 0.108340904
000310 10 59 12 be 61 08 19 3e d8 50 b6 bc e8 d7 d9 3c
       -0.14291787 0.14944603 -0.022255346 0.02659221
000320 26 6b dc bd cc ef 89 3d 80 32 83 bb 4f 96 af bd
       -0.107626244 0.06735191 -0.004003823 -0.08573591
000330 99 3e ae bd f8 36 92 bd 94 c7 e5 bd f8 47 a0 3c
       -0.08508033 -0.07139391 -0.11219707 0.019565567
000340 da 28 f2 3d 7c 4a 4e 3d de 1d de 3d 2e ab d0 3d
       0.11824198 0.050364003 0.108455405 0.101889
000350 d0 9b af 3d 56 ce e8 3d 54 37 ec bc c0 d9 a6 bb
       0.08574641 0.113674805 -0.028834976 -0.005091876
000360 71 2e 0e 3e 49 f8 11 3e d0 63 10 be fc b2 47 3d
       0.13884903 0.1425487 -0.14100575 0.048754677
000370 86 65 1e bd f8 a8 df bd 56 84 d9 bd d2 bd b6 bd
       -0.03867104 -0.109209 -0.10620944 -0.08922924
000380 b3 29 97 bd e0 32 5e bd 76 dc e4 3d ef 88 12 be
       -0.07381 -0.054247737 0.11174862 -0.14310049
000390 00 54 83 bb 90 1d e8 bd ee 37 43 bd 09 48 18 3e
       -0.0040078163 -0.113337636 -0.04766076 0.14871229
0003a0 72 45 e3 3d a4 28 4d bd 58 0f 17 3d ca e2 05 be
       0.1109723 -0.050087586 0.036879867 -0.13074794
0003b0 06 df c7 3d 5e b6 1b be b8 3d 98 bc 10 05 75 3c
       0.09759335 -0.15206286 -0.018584117 0.01495482
0003c0 52 91 f4 3d 38 94 0f be 68 90 cd 3c 70 2c 33 bc
       0.1194178 -0.14021385 0.025093272 -0.010935888
0003d0 8c b0 7f bd 92 9c 75 bd 7a df 86 3d 40 c0 9c 3d
       -0.062424228 -0.05996377 0.065855935 0.07653856
0003e0 86 2e 9d bd 6c 74 1f 3d 80 dd d0 bd 8a 8e 73 bd
       -0.07674889 0.038929388 -0.10198498 -0.059462108
0003f0 48 93 09 bd 46 d5 90 3d d2 8e 7a bd 2b 40 03 3e
       -0.033587724 0.07071929 -0.06117136 0.12817447

fc_layers.4.bias f4 [128]
000000 a0 2b fa 3b 03 90 a5 3d 86 4a 50 3d ad 61 a1 bd
       0.007634595 0.08084109 0.05085232 -0.07879958
000010 a0 65 96 3c 00 80 c1 b9 42 aa 34 3d c2 bc 75 3d
       0.018359005 -0.00036907196 0.044107683 0.059994467
000020 08 12 79 bc 89 60 97 bd 30 bb 12 bc 3b 63 8d 3d
       -0.015202053 -0.073914595 -0.008955762 0.06903692
000030 7c a8 a5 bc 60 9e 6d 3c ee 99 df bc c8 7f 21 bd
       -0.020221941 0.014503092 -0.02729508 -0.039428502
000040 b7 fb 86 3d cc 44 27 bd 12 00 12 3d 06 46 7c 3d
       0.065909795 -0.040837094 0.0356446 0.061590217
000050 17 94 9a 3d 76 54 4c 3d ac 12 5d bd ba 79 78 3d
       0.07547777 0.049885236 -0.053972885 0.060662962
000060 46 3f 4a 3d 12 9e 9a bd 95 31 a8 3d 76 40 a9 bd
       0.04937675 -0.07549681 0.08212582 -0.08264248
000070 5a 7a 8b bd 00 f4 45 b9 34 51 af bd 02 c7 ab bd
       -0.06810446 -0.00018878281 -0.0856041 -0.08387567
000080 a2 ae 07 bd 9f bc 93 3d e0 e2 48 3b 3a fe 3a 3d
       -0.033125527 0.07213711 0.0030652806 0.045652606
000090 ee e0 5e bd 71 da 90 3d 12 07 72 3d 5a 03 70 3d
       -0.05441373 0.070729144 0.059088774 0.058596946
0000a0 f8 d1 9f bc 3f f9 9e 3d 93 27 88 3d 8f d7 22 bd
       -0.0195093 0.07762384 0.06648173 -0.039756354
0000b0 74 78 2e bd ca 08 6b 3d 09 48 8b bd 40 0c f4 3b
       -0.04259534 0.05738143 -0.06800849 0.0074477494
0000c0 da fc e0 bc 50 fe a1 bc eb 83 9e 3d 9f 21 85 3d
       -0.027464319 -0.019774586 0.07740005 0.06500553
0000d0 c3 e0 b2 3d a2 27 6a 3d f0 27 b7 3c aa cf 0e 3d
       0.08734276 0.057166703 0.02235791 0.034866013
0000e0 72 e4 78 3d 72 36 16 bd 30 ff 92 3c 70 75 d1 3c
       0.060764737 -0.036673017 0.017943949 0.025568694
0000f0 38 40 9e 3c 68 08 57 3c b4 57 ac bc 66 ce 25 3d
       0.019317731 0.013124563 -0.021037914 0.04048004
000100 5d 6a 82 3d 85 aa 97 bd 42 00 48 3d 74 41 98 bd
       0.063679434 -0.07405571 0.04882837 -0.07434359
000110 97 93 8c 3d 62 34 15 bd f8 7c 73 bc 23 b1 25 bd
       0.06864088 -0.03642691 -0.014861338 -0.040452134
000120 10 8c e5 3c b0 09 39 3c b8 f7 c3 3c 9d 84 94 3d
       0.028020889 0.011293814 0.023921832 0.072518565
000130 d1 40 a4 bd b8 f1 ce bc 06 9e 1c 3d b0 a5 c4 3b
       -0.08020175 -0.025261745 0.03823664 0.006001197
000140 3b 4c 92 3d 80 c7 79 bc 68 c8 c8 bc 46 d0 73 3d
       0.07143446 -0.015245318 -0.024509624 0.059524797
000150 68 38 9e bd 96 ad 55 3d ae 62 85 bd 38 56 55 bc
       -0.077256024 0.052167498 -0.06512962 -0.013021044
000160 69 f6 27 bd 60 00 7f 3c 2b 09 96 3d d4 2e ad bc
       -0.04100648 0.015564054 0.073259674 -0.021140493
000170 ee a7 21 3d 50 ea f5 bb 20 d3 04 3c af eb 93 bd
       0.03946679 -0.007504739 0.008106977 -0.072226875
000180 56 05 4a 3d e4 b0 3d bd 66 5e 53 3d 04 3a 37 bd
       0.049321495 -0.046311274 0.051603697 -0.044733062
000190 5b 79 a7 3d 26 a9 37 3d d3 40 9b 3d df ba 9b 3d
       0.081774436 0.044839047 0.075807236 0.07604002
0001a0 e0 3f 51 3c af c5 97 bd e0 8d 7f 3c b2 c8 5f bd
       0.012771577 -0.07410752 0.0155977905 -0.054634757
0001b0 a0 1d b2 bb 2f 17 96 3d 95 e1 91 3d 7e a3 ae bd
       -0.0054356605 0.07328641 0.071231045 -0.085272774
0001c0 12 6d 6e bd 43 46 9a 3d 8c 23 67 bd 3f cf af 3d
       -0.058209486 0.075329326 -0.056430385 0.08584451
0001d0 fe 7d 25 bd 10 9d ce 3b 33 2f 37 bd 85 bd 97 bd
       -0.04040336 0.0063053444 -0.044722747 -0.07409195
0001e0 df 76 8b bd 1b b9 a2 3d 5a 53 23 3d 1f ca 81 3d
       -0.06809782 0.07945462 0.039874412 0.0633738
0001f0 6c dd b4 bd 7d 8c 9f bd 60 e9 97 bc 12 bf 40 bd
       -0.08831295 -0.07790468 -0.018543899 -0.04705722

fc_layers.6.weight f4 [6, 128]
000000 bf 50 0a 3e af fd 56 be b9 57 40 3e 0e c0 a9 bd
       0.13507365 -0.2099521 0.18783464 -0.08288585
000010 50 c1 4d 3c 6e 76 14 be bd e1 d6 bd 83 08 48 3e
       0.012558296 -0.14498302 -0.10492275 0.19534497
000020 2f 88 26 be 30 8c d0 bc 30 a0 2a bd be e3 98 3d
       -0.16262887 -0.025457472 -0.041656673 0.074653134
000030 00 04 db 3b 32 f4 b4 3d e8 91 39 be a8 1f 8d bd
       0.0066838264 0.08835639 -0.18122065 -0.068908036
000040 b0 91 85 3c 92 2e a1 3d 9c 86 23 bd 9e 2a 2d be
       0.01630482 0.07870211 -0.039923295 -0.16910788
000050 83 92 16 3e 06 47 ec 3d e0 7e 51 bc e8 d5 86 bd
       0.14704327 0.11536984 -0.012786597 -0.06583768
000060 fc be ba bd 6a 62 d5 3d 89 76 1d be b6 7f ec 3d
       -0.09118459 0.104191616 -0.15377249 0.115477964
000070 40 6a b5 3c 6a 05 98 3d 92 3d 4d be a4 66 24 3d
       0.02214539 0.07422908 -0.20043018 0.04013695
000080 38 fa ef 3c 7b 96 4d be 76 b5 a7 3d a9 f5 ed bd
       0.029294118 -0.20076935 0.08188908 -0.116191216
000090 60 f6 a9 bb aa db f8 3d ef b0 51 be d8 e7 ab bc
       -0.005186841 0.121512726 -0.20477651 -0.020984575
0000a0 19 ef fb bd f8 d1 17 3d 05 4d 32 3e cf 50 29 3e
       -0.12301464 0.037065476 0.17412193 0.16534732
0000b0 d3 7a 52 3e 24 59 6a bd 89 6a 0e 3e a8 a5 86 3c
       0.20554666 -0.057213917 0.13907827 0.016436413
0000c0 70 f7 2c 3c 46 21 0d be 42 0d c0 bd 02 89 29 be
       0.010557041 -0.13782224 -0.09377529 -0.1655617
0000d0 13 68 0f 3e 0f 7b 12 3e e6 34 84 3d 4d 38 29 be
       0.14004545 0.14304756 0.06455402 -0.16525383
0000e0 a1 0f c5 bd 84 7d 3d 3d 40 1c 98 bc cd c1 2b 3e
       -0.096221216 0.04626228 -0.018568158 0.16773148
0000f0 36 0a a3 3d 32 a2 f2 3d c2 56 04 be 01 0b 01 3e
       0.07960932 0.118473426 -0.1292372 0.12601854
000100 ad 17 3e 3e f8 99 fc 3c 9c 12 53 be 3a 85 47 be
       0.18563719 0.030835137 -0.20612568 -0.19484416
000110 5e 71 ee 3d 8a b1 d4 3d 66 85 ad 3d 77 91 0f 3e
       0.11642717 0.103854254 0.08472709 0.14020334
000120 cc 14 75 3d fe e0 23 be 50 65 2b 3c 03 31 13 3e
       0.059834287 -0.16003796 0.0104611665 0.14374165
000130 8a 58 f4 3d e5 9f 53 3e 95 e9 13 3e 2a d4 ab bd
       0.1193095 0.20666464 0.14444573 -0.083900765
000140 80 c6 86 ba 0c cf 7d 3d 98 6d f3 bc cf 23 56 3e
       -0.0010282546 0.061965033 -0.029715344 0.20912097
000150 30 c5 e4 bc 7f 0d e5 bd 9b 69 13 be ba f2 50 be
       -0.027926058 -0.11184215 -0.14395754 -0.20405093
000160 e6 42 cb 3d be 94 b3 3d 15 15 bb bd 5a e2 08 be
       0.09924869 0.08768605 -0.091348805 -0.13367596
000170 70 3d 4f bd b1 da 1f be eb fc 07 3e a4 1e 69 bd
       -0.0505957 -0.15610768 0.13280074 -0.056913987
000180 f1 90 2e 3e a1 51 ee bd e1 c1 3f be f6 55 89 3d
       0.17047478 -0.11636663 -0.18726303 0.06705849
000190 a1 3d 40 3e 09 88 01 3e 2a 9a 9e 3d 64 bc 0e be
       0.1877351 0.1264955 0.07744248 -0.13939053
0001a0 7b b5 56 be 8c 61 31 3d bd dd 57 be 80 5e d7 3c
       -0.20967667 0.04330592 -0.2108068 0.026290178
0001b0 53 47 37 3e 02 20 cd 3d 60 8c 2d be 75 21 41 3e
       0.17898302 0.10015871 -0.1694808 0.18860419
0001c0 42 4a 9b 3d 5d 22 4d 3e 35 37 20 3e ab 4e 40 be
       0.07582523 0.2003264 0.1564606 -0.1878001
0001d0 d9 89 21 3e 91 7c 51 3e 40 6d c8 bc 1c 7f 70 3d
       0.15775241 0.20457675 -0.024466157 0.05871497
0001e0 58 82 4d bd 94 80 bc bd 63 52 48 3e 68 04 ad bc
       -0.050173134 -0.09204212 0.19562678 -0.021120265
0001f0 a6 89 f6 3d d0 35 f1 3c 3e 36 d0 3d 0f db 4d be
       0.12037973 0.029444605 0.10166596 -0.20103095
000200 e6 14 9a bd a2 b9 e7 3d 4e ff 15 be 80 94 01 bd
       -0.07523517 0.113147035 -0.14648172 -0.03163576
000210 d5 18 11 3e 66 95 c8 3d a4 e4 ac bd 98 7e 0b be
       0.14169629 0.097941205 -0.08442047 -0.1362251
000220 2c a6 2d be ec bc 89 bd 9f 46 43 3e 9e 1d fc 3d
       -0.16957921 -0.06725487 0.19069909 0.123103365
000230 00 fc ab b9 c1 64 18 3e 2c 0f 66 bd 97 7e 1a 3e
       -0.00032803416 0.14882185 -0.056166813 0.15087353
000240 15 ba 10 3e a7 40 55 be 33 99 29 3e d8 e2 e4 3c
       0.14133485 -0.20825444 0.16562347 0.027940199
000250 f8 47 c6 3c 51 bb 1d 3e a1 3d 2c 3e fe 2a 96 3d
       0.02420424 0.15403487 0.16820385 0.07332419
000260 11 ff 3d 3e 33 18 43 3e 1f 26 45 3e f9 89 2d 3e
       0.18554331 0.190522 0.19252823 0.16947164
000270 60 56 38 3c 43 42 2d be 3e 59 d7 3d af 6d 0e 3e
       0.011251062 -0.16919808 0.105150685 0.13909028
000280 4e e8 c5 3d 4d 0b f3 bd fc 80 61 bd e3 ea 43 be
       0.09663449 -0.1186739 -0.05505465 -0.19132571
000290 2a e6 2a be 68 cb d4 3c cf 8b 3b 3e 5c b7 08 be
       -0.16689363 0.025975898 0.18315051 -0.13351196
0002a0 d0 87 bd bd 94 01 13 be ab c9 07 3e f8 d6 d6 3c
       -0.0925442 -0.14356071 0.13260524 0.026225552
0002b0 9e bf dc 3d 6e e9 f5 3d c0 d7 2d bc 5e b8 8e 3d
       0.107787356 0.12007414 -0.010610521 0.06968759
0002c0 a0 2a dd 3c 14 28 25 be 9e b1 a1 3d 00 53 ef ba
       0.026997864 -0.1612857 0.07895206 -0.0018258989
0002d0 c6 0f b0 bd 7d 80 0e 3e d4 18 1e be a3 5e 1f 3e
       -0.085967585 0.13916202 -0.15439159 0.15563445
0002e0 ef 47 3d 3e 24 0d 60 3d ac 94 8f bd c2 34 11 be
       0.18484472 0.054700032 -0.07010779 -0.14180282
0002f0 ac db 30 bd 24 7f 52 3d 61 ff 1f 3e e0 24 9d bd
       -0.043178245 0.051390782 0.15624763 -0.07673049
000300 a7 c6 39 3e 36 c9 29 be 11 7a f8 bd 6d af 11 3e
       0.18142186 -0.16580662 -0.12132657 0.14227076
000310 24 46 2a be 6b ae 1e 3e e3 93 48 3e 24 7e 58 3d
       -0.16628319 0.15496223 0.19587664 0.052854672
000320 f5 26 12 be b0 cc aa 3c ed f1 46 be 21 29 15 be
       -0.14272673 0.020849556 -0.19428225 -0.1456647
000330 d0 d2 19 3c d9 bf 32 3e d8 cb f0 bc 48 44 8b bd
       0.0093886405 0.17455997 -0.029394075 -0.06800133
000340 cf 29 be bd 4c a0 2d 3d 8a ee 1a be 92 6f 95 3d
       -0.09285318 0.0423892 -0.15130058 0.07296671
000350 1d 33 3e be 26 f4 85 bd db 0a 0f 3e 6d bb 27 be
       -0.18574186 -0.06540708 0.13968985 -0.16380091
000360 b2 b6 c9 3d b8 1c b8 bc 0e 96 ae 3d 0e a8 4e be
       0.098492995 -0.022474632 0.085247144 -0.20181295
000370 d6 00 99 bd 1f 24 57 3e fd 59 40 3e ad a6 18 3e
       -0.074708626 0.21009873 0.18784328 0.14907332
000380 5a 94 12 be 13 f1 3c 3e 0d f4 f4 bd e1 f0 00 be
       -0.14314404 0.18451338 -0.119606115 -0.12591888
000390 82 d1 e6 bd 3e 9d 8b 3d f0 08 90 bd 4b e5 05 3e
       -0.11270429 0.06817101 -0.07032955 0.1307575
0003a0 9e 3a 26 be 56 3b 41 be e6 19 8d 3d f9 cd 1c 3e
       -0.16233298 -0.18870291 0.06889705 0.15312947
0003b0 23 ba 0e 3e 6b 9a 4a be 88 0a 8e bd 69 09 51 be
       0.13938193 -0.19785468 -0.069356024 -0.20413746
0003c0 50 29 1c bc dc 7b 26 bd f1 66 2d 3e 78 16 38 be
       -0.009531334 -0.040645465 0.169338 -0.17977321
0003d0 57 5e f2 bd 49 a3 45 3e 56 c0 12 be 28 2c 23 be
       -0.118344 0.1930057 -0.14331183 -0.15934813
0003e0 d1 5a 46 3e c0 1b 04 bd 4e 2f f0 3d b8 95 00 be
       0.19370581 -0.032253027 0.11727773 -0.12557113
0003f0 18 4e 4b bd df 18 3c be 8a 58 ff 3d da cb f1 3d
       -0.049635023 -0.18368863 0.12468059 0.1180646

fc_layers.6.bias f4 [6]
000000 00 6b 53 bc 75 60 93 3d 78 32 3b 3c 88 4f a2 3c
       -0.012903929 0.07196132 0.011425607 0.019813314
000010 ac e0 bb bc 6c 01 81 3c
       -0.02293428 0.015747748

fc_layers.1.weight f4 [125]
000000 00 00 80 3f 00 00 80 3f 00 00 80 3f 00 00 80 3f
       1.0 1.0 1.0 1.0
000010 00 00 80 3f 00 00 80 3f 00 00 80 3f 00 00 80 3f
       1.0 1.0 1.0 1.0
000020 00 00 80 3f 00 00 80 3f 00 00 80 3f 00 00 80 3f
       1.0 1.0 1.0 1.0
000030 00 00 80 3f 00 00 80 3f 00 00 80 3f 00 00 80 3f
       1.0 1.0 1.0 1.0
000040 00 00 80 3f 00 00 80 3f 00 00 80 3f 00 00 80 3f
       1.0 1.0 1.0 1.0
000050 00 00 80 3f 00 00 80 3f 00 00 80 3f 00 00 80 3f
       1.0 1.0 1.0 1.0
000060 00 00 80 3f 00 00 80 3f 00 00 80 3f 00 00 80 3f
       1.0 1.0 1.0 1.0
000070 00 00 80 3f 00 00 80 3f 00 00 80 3f 00 00 80 3f
       1.0 1.0 1.0 1.0
000080 00 00 80 3f 00 00 80 3f 00 00 80 3f 00 00 80 3f
       1.0 1.0 1.0 1.0
000090 00 00 80 3f 00 00 80 3f 00 00 80 3f 00 00 80 3f
       1.0 1.0 1.0 1.0
0000a0 00 00 80 3f 00 00 80 3f 00 00 80 3f 00 00 80 3f
       1.0 1.0 1.0 1.0
0000b0 00 00 80 3f 00 00 80 3f 00 00 80 3f 00 00 80 3f
       1.0 1.0 1.0 1.0
0000c0 00 00 80 3f 00 00 80 3f 00 00 80 3f 00 00 80 3f
       1.0 1.0 1.0 1.0
0000d0 00 00 80 3f 00 00 80 3f 00 00 80 3f 00 00 80 3f
       1.0 1.0 1.0 1.0
0000e0 00 00 80 3f 00 00 80 3f 00 00 80 3f 00 00 80 3f
       1.0 1.0 1.0 1.0
0000f0 00 00 80 3f 00 00 80 3f 00 00 80 3f 00 00 80 3f
       1.0 1.0 1.0 1.0
000100 00 00 80 3f 00 00 80 3f 00 00 80 3f 00 00 80 3f
       1.0 1.0 1.0 1.0
000110 00 00 80 3f 00 00 80 3f 00 00 80 3f 00 00 80 3f
       1.0 1.0 1.0 1.0
000120 00 00 80 3f 00 00 80 3f 00 00 80 3f 00 00 80 3f
       1.0 1.0 1.0 1.0
000130 00 00 80 3f 00 00 80 3f 00 00 80 3f 00 00 80 3f
       1.0 1.0 1.0 1.0
000140 00 00 80 3f 00 00 80 3f 00 00 80 3f 00 00 80 3f
       1.0 1.0 1.0 1.0
000150 00 00 80 3f 00 00 80 3f 00 00 80 3f 00 00 80 3f
       1.0 1.0 1.0 1.0
000160 00 00 80 3f 00 00 80 3f 00 00 80 3f 00 00 80 3f
       1.0 1.0 1.0 1.0
000170 00 00 80 3f 00 00 80 3f 00 00 80 3f 00 00 80 3f
       1.0 1.0 1.0 1.0
000180 00 00 80 3f 00 00 80 3f 00 00 80 3f 00 00 80 3f
       1.0 1.0 1.0 1.0
000190 00 00 80 3f 00 00 80 3f 00 00 80 3f 00 00 80 3f
       1.0 1.0 1.0 1.0
0001a0 00 00 80 3f 00 00 80 3f 00 00 80 3f 00 00 80 3f
       1.0 1.0 1.0 1.0
0001b0 00 00 80 3f 00 00 80 3f 00 00 80 3f 00 00 80 3f
       1.0 1.0 1.0 1.0
0001c0 00 00 80 3f 00 00 80 3f 00 00 80 3f 00 00 80 3f
       1.0 1.0 1.0 1.0
0001d0 00 00 80 3f 00 00 80 3f 00 00 80 3f 00 00 80 3f
       1.0 1.0 1.0 1.0
0001e0 00 00 80 3f 00 00 80 3f 00 00 80 3f 00 00 80 3f
       1.0 1.0 1.0 1.0
0001f0 00 00 80 3f
       1.0

fc_layers.1.bias f4 [125]
000000 00 00 00 00 00 00 00 00 00 00 00 00 00 00 00 00
       0.0 0.0 0.0 0.0
000010 00 00 00 00 00 00 00 00 00 00 00 00 00 00 00 00
       0.0 0.0 0.0 0.0
000020 00 00 00 00 00 00 00 00 00 00 00 00 00 00 00 00
       0.0 0.0 0.0 0.0
000030 00 00 00 00 00 00 00 00 00 00 00 00 00 00 00 00
       0.0 0.0 0.0 0.0
000040 00 00 00 00 00 00 00 00 00 00 00 00 00 00 00 00
       0.0 0.0 0.0 0.0
000050 00 00 00 00 00 00 00 00 00 00 00 00 00 00 00 00
       0.0 0.0 0.0 0.0
000060 00 00 00 00 00 00 00 00 00 00 00 00 00 00 00 00
       0.0 0.0 0.0 0.0
000070 00 00 00 00 00 00 00 00 00 00 00 00 00 00 00 00
       0.0 0.0 0.0 0.0
000080 00 00 00 00 00 00 00 00 00 00 00 00 00 00 00 00
       0.0 0.0 0.0 0.0
000090 00 00 00 00 00 00 00 00 00 00 00 00 00 00 00 00
       0.0 0.0 0.0 0.0
0000a0 00 00 00 00 00 00 00 00 00 00 00 00 00 00 00 00
       0.0 0.0 0.0 0.0
0000b0 00 00 00 00 00 00 00 00 00 00 00 00 00 00 00 00
       0.0 0.0 0.0 0.0
0000c0 00 00 00 00 00 00 00 00 00 00 00 00 00 00 00 00
       0.0 0.0 0.0 0.0
0000d0 00 00 00 00 00 00 00 00 00 00 00 00 00 00 00 00
       0.0 0.0 0.0 0.0
0000e0 00 00 00 00 00 00 00 00 00 00 00 00 00 00 00 00
       0.0 0.0 0.0 0.0
0000f0 00 00 00 00 00 00 00 00 00 00 00 00 00 00 00 00
       0.0 0.0 0.0 0.0
000100 00 00 00 00 00 00 00 00 00 00 00 00 00 00 00 00
       0.0 0.0 0.0 0.0
000110 00 00 00 00 00 00 00 00 00 00 00 00 00 00 00 00
       0.0 0.0 0.0 0.0
000120 00 00 00 00 00 00 00 00 00 00 00 00 00 00 00 00
       0.0 0.0 0.0 0.0
000130 00 00 00 00 00 00 00 00 00 00 00 00 00 00 00 00
       0.0 0.0 0.0 0.0
000140 00 00 00 00 00 00 00 00 00 00 00 00 00 00 00 00
       0.0 0.0 0.0 0.0
000150 00 00 00 00 00 00 00 00 00 00 00 00 00 00 00 00
       0.0 0.0 0.0 0.0
000160 00 00 00 00 00 00 00 00 00 00 00 00 00 00 00 00
       0.0 0.0 0.0 0.0
000170 00 00 00 00 00 00 00 00 00 00 00 00 00 00 00 00
       0.0 0.0 0.0 0.0
000180 00 00 00 00 00 00 00 00 00 00 00 00 00 00 00 00
       0.0 0.0 0.0 0.0
000190 00 00 00 00 00 00 00 00 00 00 00 00 00 00 00 00
       0.0 0.0 0.0 0.0
0001a0 00 00 00 00 00 00 00 00 00 00 00 00 00 00 00 00
       0.0 0.0 0.0 0.0
0001b0 00 00 00 00 00 00 00 00 00 00 00 00 00 00 00 00
       0.0 0.0 0.0 0.0
0001c0 00 00 00 00 00 00 00 00 00 00 00 00 00 00 00 00
       0.0 0.0 0.0 0.0
0001d0 00 00 00 00 00 00 00 00 00 00 00 00 00 00 00 00
       0.0 0.0 0.0 0.0
0001e0 00 00 00 00 00 00 00 00 00 00 00 00 00 00 00 00
       0.0 0.0 0.0 0.0
0001f0 00 00 00 00
       0.0

fc_layers.1.running_mean f4 [125]
000000 00 00 00 00 00 00 00 00 00 00 00 00 00 00 00 00
       0.0 0.0 0.0 0.0
000010 00 00 00 00 00 00 00 00 00 00 00 00 00 00 00 00
       0.0 0.0 0.0 0.0
000020 00 00 00 00 00 00 00 00 00 00 00 00 00 00 00 00
       0.0 0.0 0.0 0.0
000030 00 00 00 00 00 00 00 00 00 00 00 00 00 00 00 00
       0.0 0.0 0.0 0.0
000040 00 00 00 00 00 00 00 00 00 00 00 00 00 00 00 00
       0.0 0.0 0.0 0.0
000050 00 00 00 00 00 00 00 00 00 00 00 00 00 00 00 00
       0.0 0.0 0.0 0.0
000060 00 00 00 00 00 00 00 00 00 00 00 00 00 00 00 00
       0.0 0.0 0.0 0.0
000070 00 00 00 00 00 00 00 00 00 00 00 00 00 00 00 00
       0.0 0.0 0.0 0.0
000080 00 00 00 00 00 00 00 00 00 00 00 00 00 00 00 00
       0.0 0.0 0.0 0.0
000090 00 00 00 00 00 00 00 00 00 00 00 00 00 00 00 00
       0.0 0.0 0.0 0.0
0000a0 00 00 00 00 00 00 00 00 00 00 00 00 00 00 00 00
       0.0 0.0 0.0 0.0
0000b0 00 00 00 00 00 00 00 00 00 00 00 00 00 00 00 00
       0.0 0.0 0.0 0.0
0000c0 00 00 00 00 00 00 00 00 00 00 00 00 00 00 00 00
       0.0 0.0 0.0 0.0
0000d0 00 00 00 00 00 00 00 00 00 00 00 00 00 00 00 00
       0.0 0.0 0.0 0.0
0000e0 00 00 00 00 00 00 00 00 00 00 00 00 00 00 00 00
       0.0 0.0 0.0 0.0
0000f0 00 00 00 00 00 00 00 00 00 00 00 00 00 00 00 00
       0.0 0.0 0.0 0.0
000100 00 00 00 00 00 00 00 00 00 00 00 00 00 00 00 00
       0.0 0.0 0.0 0.0
000110 00 00 00 00 00 00 00 00 00 00 00 00 00 00 00 00
       0.0 0.0 0.0 0.0
000120 00 00 00 00 00 00 00 00 00 00 00 00 00 00 00 00
       0.0 0.0 0.0 0.0
000130 00 00 00 00 00 00 00 00 00 00 00 00 00 00 00 00
       0.0 0.0 0.0 0.0
000140 00 00 00 00 00 00 00 00 00 00 00 00 00 00 00 00
       0.0 0.0 0.0 0.0
000150 00 00 00 00 00 00 00 00 00 00 00 00 00 00 00 00
       0.0 0.0 0.0 0.0
000160 00 00 00 00 00 00 00 00 00 00 00 00 00 00 00 00
       0.0 0.0 0.0 0.0
000170 00 00 00 00 00 00 00 00 00 00 00 00 00 00 00 00
       0.0 0.0 0.0 0.0
000180 00 00 00 00 00 00 00 00 00 00 00 00 00 00 00 00
       0.0 0.0 0.0 0.0
000190 00 00 00 00 00 00 00 00 00 00 00 00 00 00 00 00
       0.0 0.0 0.0 0.0
0001a0 00 00 00 00 00 00 00 00 00 00 00 00 00 00 00 00
       0.0 0.0 0.0 0.0
0001b0 00 00 00 00 00 00 00 00 00 00 00 00 00 00 00 00
       0.0 0.0 0.0 0.0
0001c0 00 00 00 00 00 00 00 00 00 00 00 00 00 00 00 00
       0.0 0.0 0.0 0.0
0001d0 00 00 00 00 00 00 00 00 00 00 00 00 00 00 00 00
       0.0 0.0 0.0 0.0
0001e0 00 00 00 00 00 00 00 00 00 00 00 00 00 00 00 00
       0.0 0.0 0.0 0.0
0001f0 00 00 00 00
       0.0

fc_layers.1.running_var f4 [125]
000000 00 00 80 3f 00 00 80 3f 00 00 80 3f 00 00 80 3f
       1.0 1.0 1.0 1.0
000010 00 00 80 3f 00 00 80 3f 00 00 80 3f 00 00 80 3f
       1.0 1.0 1.0 1.0
000020 00 00 80 3f 00 00 80 3f 00 00 80 3f 00 00 80 3f
       1.0 1.0 1.0 1.0
000030 00 00 80 3f 00 00 80 3f 00 00 80 3f 00 00 80 3f
       1.0 1.0 1.0 1.0
000040 00 00 80 3f 00 00 80 3f 00 00 80 3f 00 00 80 3f
       1.0 1.0 1.0 1.0
000050 00 00 80 3f 00 00 80 3f 00 00 80 3f 00 00 80 3f
       1.0 1.0 1.0 1.0
000060 00 00 80 3f 00 00 80 3f 00 00 80 3f 00 00 80 3f
       1.0 1.0 1.0 1.0
000070 00 00 80 3f 00 00 80 3f 00 00 80 3f 00 00 80 3f
       1.0 1.0 1.0 1.0
000080 00 00 80 3f 00 00 80 3f 00 00 80 3f 00 00 80 3f
       1.0 1.0 1.0 1.0
000090 00 00 80 3f 00 00 80 3f 00 00 80 3f 00 00 80 3f
       1.0 1.0 1.0 1.0
0000a0 00 00 80 3f 00 00 80 3f 00 00 80 3f 00 00 80 3f
       1.0 1.0 1.0 1.0
0000b0 00 00 80 3f 00 00 80 3f 00 00 80 3f 00 00 80 3f
       1.0 1.0 1.0 1.0
0000c0 00 00 80 3f 00 00 80 3f 00 00 80 3f 00 00 80 3f
       1.0 1.0 1.0 1.0
0000d0 00 00 80 3f 00 00 80 3f 00 00 80 3f 00 00 80 3f
       1.0 1.0 1.0 1.0
0000e0 00 00 80 3f 00 00 80 3f 00 00 80 3f 00 00 80 3f
       1.0 1.0 1.0 1.0
0000f0 00 00 80 3f 00 00 80 3f 00 00 80 3f 00 00 80 3f
       1.0 1.0 1.0 1.0
000100 00 00 80 3f 00 00 80 3f 00 00 80 3f 00 00 80 3f
       1.0 1.0 1.0 1.0
000110 00 00 80 3f 00 00 80 3f 00 00 80 3f 00 00 80 3f
       1.0 1.0 1.0 1.0
000120 00 00 80 3f 00 00 80 3f 00 00 80 3f 00 00 80 3f
       1.0 1.0 1.0 1.0
000130 00 00 80 3f 00 00 80 3f 00 00 80 3f 00 00 80 3f
       1.0 1.0 1.0 1.0
000140 00 00 80 3f 00 00 80 3f 00 00 80 3f 00 00 80 3f
       1.0 1.0 1.0 1.0
000150 00 00 80 3f 00 00 80 3f 00 00 80 3f 00 00 80 3f
       1.0 1.0 1.0 1.0
000160 00 00 80 3f 00 00 80 3f 00 00 80 3f 00 00 80 3f
       1.0 1.0 1.0 1.0
000170 00 00 80 3f 00 00 80 3f 00 00 80 3f 00 00 80 3f
       1.0 1.0 1.0 1.0
000180 00 00 80 3f 00 00 80 3f 00 00 80 3f 00 00 80 3f
       1.0 1.0 1.0 1.0
000190 00 00 80 3f 00 00 80 3f 00 00 80 3f 00 00 80 3f
       1.0 1.0 1.0 1.0
0001a0 00 00 80 3f 00 00 80 3f 00 00 80 3f 00 00 80 3f
       1.0 1.0 1.0 1.0
0001b0 00 00 80 3f 00 00 80 3f 00 00 80 3f 00 00 80 3f
       1.0 1.0 1.0 1.0
0001c0 00 00 80 3f 00 00 80 3f 00 00 80 3f 00 00 80 3f
       1.0 1.0 1.0 1.0
0001d0 00 00 80 3f 00 00 80 3f 00 00 80 3f 00 00 80 3f
       1.0 1.0 1.0 1.0
0001e0 00 00 80 3f 00 00 80 3f 00 00 80 3f 00 00 80 3f
       1.0 1.0 1.0 1.0
0001f0 00 00 80 3f
       1.0
