models/nolimit_holdem_nfsp_pytorch/model.pth (torch_old, 577449 bytes, 60 tensors)

fc_layers.1.weight f4 [47]
1.0 1.0 1.0 1.0 1.0 1.0 1.0 1.0
1.0 1.0 1.0 1.0 1.0 1.0 1.0 1.0
1.0 1.0 1.0 1.0 1.0 1.0 1.0 1.0
1.0 1.0 1.0 1.0 1.0 1.0 1.0 1.0
1.0 1.0 1.0 1.0 1.0 1.0 1.0 1.0
1.0 1.0 1.0 1.0 1.0 1.0 1.0
00000000: 0000 803f 0000 803f 0000 803f 0000 803f
00000010: 0000 803f 0000 803f 0000 803f 0000 803f
00000020: 0000 803f 0000 803f 0000 803f 0000 803f
00000030: 0000 803f 0000 803f 0000 803f 0000 803f
00000040: 0000 803f 0000 803f 0000 803f 0000 803f
00000050: 0000 803f 0000 803f 0000 803f 0000 803f
00000060: 0000 803f 0000 803f 0000 803f 0000 803f
00000070: 0000 803f 0000 803f 0000 803f 0000 803f
00000080: 0000 803f 0000 803f 0000 803f 0000 803f
00000090: 0000 803f 0000 803f 0000 803f 0000 803f
000000a0: 0000 803f 0000 803f 0000 803f 0000 803f
000000b0: 0000 803f 0000 803f 0000 803f

fc_layers.1.bias f4 [47]
0.0 0.0 0.0 0.0 0.0 0.0 0.0 0.0
0.0 0.0 0.0 0.0 0.0 0.0 0.0 0.0
0.0 0.0 0.0 0.0 0.0 0.0 0.0 0.0
0.0 0.0 0.0 0.0 0.0 0.0 0.0 0.0
0.0 0.0 0.0 0.0 0.0 0.0 0.0 0.0
0.0 0.0 0.0 0.0 0.0 0.0 0.0
00000000: 0000 0000 0000 0000 0000 0000 0000 0000
00000010: 0000 0000 0000 0000 0000 0000 0000 0000
00000020: 0000 0000 0000 0000 0000 0000 0000 0000
00000030: 0000 0000 0000 0000 0000 0000 0000 0000
00000040: 0000 0000 0000 0000 0000 0000 0000 0000
00000050: 0000 0000 0000 0000 0000 0000 0000 0000
00000060: 0000 0000 0000 0000 0000 0000 0000 0000
00000070: 0000 0000 0000 0000 0000 0000 0000 0000
00000080: 0000 0000 0000 0000 0000 0000 0000 0000
00000090: 0000 0000 0000 0000 0000 0000 0000 0000
000000a0: 0000 0000 0000 0000 0000 0000 0000 0000
000000b0: 0000 0000 0000 0000 0000 0000

fc_layers.1.running_mean f4 [47]
0.0 0.0 0.0 0.0 0.0 0.0 0.0 0.0
0.0 0.0 0.0 0.0 0.0 0.0 0.0 0.0
0.0 0.0 0.0 0.0 0.0 0.0 0.0 0.0
0.0 0.0 0.0 0.0 0.0 0.0 0.0 0.0
0.0 0.0 0.0 0.0 0.0 0.0 0.0 0.0
0.0 0.0 0.0 0.0 0.0 0.0 0.0
00000000: 0000 0000 0000 0000 0000 0000 0000 0000
00000010: 0000 0000 0000 0000 0000 0000 0000 0000
00000020: 0000 0000 0000 0000 0000 0000 0000 0000
00000030: 0000 0000 0000 0000 0000 0000 0000 0000
00000040: 0000 0000 0000 0000 0000 0000 0000 0000
00000050: 0000 0000 0000 0000 0000 0000 0000 0000
00000060: 0000 0000 0000 0000 0000 0000 0000 0000
00000070: 0000 0000 0000 0000 0000 0000 0000 0000
00000080: 0000 0000 0000 0000 0000 0000 0000 0000
00000090: 0000 0000 0000 0000 0000 0000 0000 0000
000000a0: 0000 0000 0000 0000 0000 0000 0000 0000
000000b0: 0000 0000 0000 0000 0000 0000

fc_layers.1.running_var f4 [47]
1.0 1.0 1.0 1.0 1.0 1.0 1.0 1.0
1.0 1.0 1.0 1.0 1.0 1.0 1.0 1.0
1.0 1.0 1.0 1.0 1.0 1.0 1.0 1.0
1.0 1.0 1.0 1.0 1.0 1.0 1.0 1.0
1.0 1.0 1.0 1.0 1.0 1.0 1.0 1.0
1.0 1.0 1.0 1.0 1.0 1.0 1.0
00000000: 0000 803f 0000 803f 0000 803f 0000 803f
00000010: 0000 803f 0000 803f 0000 803f 0000 803f
00000020: 0000 803f 0000 803f 0000 803f 0000 803f
00000030: 0000 803f 0000 803f 0000 803f 0000 803f
00000040: 0000 803f 0000 803f 0000 803f 0000 803f
00000050: 0000 803f 0000 803f 0000 803f 0000 803f
00000060: 0000 803f 0000 803f 0000 803f 0000 803f
00000070: 0000 803f 0000 803f 0000 803f 0000 803f
00000080: 0000 803f 0000 803f 0000 803f 0000 803f
00000090: 0000 803f 0000 803f 0000 803f 0000 803f
000000a0: 0000 803f 0000 803f 0000 803f 0000 803f
000000b0: 0000 803f 0000 803f 0000 803f

fc_layers.2.weight f4 [128, 47]
0.057283998 0.114965245 0.16761334 0.0507825 -0.115493886 -0.027974293 -0.01993379 -0.0679877
0.1427847 -0.028233215 0.06962095 0.05329369 -0.047468618 0.17296045 0.15632115 0.17485861
-0.1453661 -0.064408615 -0.013211802 -0.12826464 0.055775866 0.014915124 0.115503445 -0.13070431
-0.08719563 0.06826107 -0.15278748 0.117748186 0.08174001 -0.13194597 -0.005200699 -0.16195256
0.029359967 0.011722326 0.083881006 0.1261264 -0.02125831 -0.07056445 -0.07901924 0.030899093
-0.17483594 -0.04032114 -0.14925304 0.040633842 0.057944894 0.046322897 0.049469665 -0.10317292
0.0746177 -0.17012812 -0.06960245 -0.010555312 0.03120631 -0.09726922 -0.18466903 -0.0047649294
-0.17661946 -0.0155458 -0.049257874 -0.12577671 0.082540646 -0.054818705 -0.016394243 0.02982977
-0.0736584 0.16067179 0.15337954 0.13655789 0.13944481 -0.028631687 0.07137932 0.082997635
-0.072130375 -0.06978206 -0.09952904 -0.06604345 0.009131312 -0.11896553 -0.012804225 -0.0758329
-0.09959127 0.099879995 -0.15639143 0.009624347 -0.030981243 0.034595877 -0.10938774 -0.08847413
0.034946978 0.06801017 0.089976326 -0.11467587 -0.0040144175 0.13630418 -0.06109888 -0.1310467
-0.12876996 -0.07302158 -0.14097568 -0.10377839 -0.10587551 -0.13485047 -0.09675887 -0.048597798
0.15102394 0.028810143 0.17084412 -0.17202535 0.08204453 0.08813582 -0.04584329 0.10197969
-0.03315635 0.17061894 0.08159678 -0.012299493 -0.02506563 0.12065314 0.04275015 0.16492735
-0.12560713 -0.034343675 0.12287818 -0.041576833 -0.08347888 0.09518276 -0.062203452 -0.014711171
-0.064236686 -0.15259272 -0.017360076 -0.14802003 -0.17146559 0.096311435 -0.12812205 -0.041444823
-0.011284143 0.06651841 0.14074115 -0.006989345 -0.16067928 0.052474678 -0.1492069 0.15400498
-0.14288071 0.11222707 0.15622897 0.03884077 -0.13943338 0.18392323 -0.17918012 0.047073364
-0.18074834 -0.11575411 -0.052530408 0.16149758 -0.10793706 0.025523141 0.17971615 -0.0733382
-0.04944256 -0.14602637 0.07777567 -0.09170362 0.08212234 -0.16592792 -0.15857732 0.17788784
0.10597296 -0.025852963 -0.13549004 0.000120803714 -0.18237863 -0.05285409 0.041351467 -0.1043536
0.1196544 -0.09894512 -0.10138441 -0.12376874 0.052863896 -0.12497316 -0.048502088 0.01835291
-0.08230677 0.16362612 -0.11465848 0.05094193 0.16421501 -0.10352278 0.15008606 0.09407689
-0.16899489 0.18313383 -0.14817487 -0.12810384 -0.15495315 0.03069374 0.08855142 0.049337804
-0.05535789 -0.11910625 -0.1589047 -0.004779443 0.049573615 0.09882496 0.09300844 0.15129031
0.0046165586 -0.14608651 0.08902685 -0.10524498 0.112957105 0.17965768 -0.16806608 0.053585917
-0.025974318 -0.17885141 0.14824505 -0.08394324 -0.054663137 0.013188377 0.009844482 0.16906004
0.07723571 0.016909435 -0.110193744 0.06748758 -0.13049518 0.0325958 -0.0566829 0.111399785
0.09500907 0.11932935 -0.066911966 0.16643925 0.14642103 -0.020887807 0.12337087 -0.17659867
-0.15386048 0.15096556 0.13820462 0.086288735 -0.098954804 0.014490351 0.13927649 -0.0860973
-0.08745635 0.15589269 -0.09007208 -0.14563364 -0.11678729 -0.06977946 0.029384226 -0.17516072
00000000: a0a2 6a3d e672 eb3d d5a2 2b3e 5001 503d
00000010: 0f88 ecbd 582a e5bc 304c a3bc 233d 8bbd
00000020: 2736 123e 5849 e7bc 6e95 8e3d 7c4a 5a3d
00000030: 746e 42bd 8b1c 313e a712 203e 230e 333e
00000040: dada 14be aae8 83bd 5076 58bc ce57 03be
00000050: 3c75 643d 905e 743c 128d ec3d 5ad7 05be
00000060: 9f93 b2bd 76cc 8b3d 5274 1cbe f625 f13d
00000070: 4e67 a73d d81c 07be a06a aabb e4d6 25be
00000080: 5084 f03c 000f 403c cec9 ab3d 4727 013e
00000090: e825 aebc 1884 90bd d7d4 a1bd 1820 fd3c
000000a0: 3108 33be c827 25bd cad5 18be ac6f 263d
000000b0: a057 6d3d 14bd 3d3d b4a0 4a3d 534c d3bd
000000c0: 2ad1 983d 1136 2ebe bb8b 8ebd 30f0 2cbc
000000d0: 60a4 ff3c 1635 c7bd e119 3dbe 2023 9cbb
000000e0: bbdb 34be d0b3 7ebc a0c2 49bd 9ccb 00be
000000f0: 120b a93d 9489 60bd 384d 86bc 905d f43c
00000100: 37da 96bd 2587 243e 870f 1d3e d5d5 0b3e
00000110: 9fca 0e3e 008d eabc 522f 923d aafa a93d
00000120: 17b9 93bd e6e9 8ebd e2d5 cbbd ca41 87bd
00000130: 809b 153c 33a4 f3bd d0c8 51bc 484e 9bbd
00000140: 82f6 cbbd e28d cc3d 1325 20be 70af 1d3c
00000150: 60cc fdbc 68b4 0d3d ae06 e0bd ed31 b5bd
00000160: 9024 0f3d ea48 8b3d 8245 b83d 2fdb eabd
00000170: 608b 83bb 5393 0b3e d242 7abd 1b31 06be
00000180: 46dc 03be 578c 95bd ee5b 10be c489 d4bd
00000190: 42d5 d8bd 3e16 0abe 8429 c6bd 7c0e 47bd
000001a0: 05a6 1a3e 4003 ec3c c3f1 2e3e 6a27 30be
000001b0: f606 a83d 8e80 b43d 2cc6 3bbd bada d03d
000001c0: f4ce 07bd bbb6 2e3e 361c a73d d083 49bc
000001d0: 7056 cdbc fe18 f73d c81a 2f3d b7e2 283e
000001e0: 289f 00be f4ab 0cbd 8ea7 fb3d 784c 2abd
000001f0: faf6 aabd 2eef c23d 0cc9 7ebd 2007 71bc
00000200: 868e 83bd 4441 1cbe b836 8ebc 9092 17be
00000210: ad94 2fbe ee3e c53d 6d32 03be 0cc2 29bd
00000220: 20e1 38bc ce3a 883d 731e 103e e006 e5bb
00000230: 1c89 24be b0ef 563d b2c9 18be 7bb3 1d3e
00000240: 524f 12be 4ed7 e53d 7dfa 1f3e 8017 1f3d
00000250: a0c7 0ebe 5f56 3c3e fe7a 37be 00d0 403d
00000260: 1816 39be 7e10 edbd 202a 57bd 9f5f 253e
00000270: 1b0e ddbd e815 d13c 8307 383e 5732 96bd
00000280: 4884 4abd f087 15be da48 9f3d 1ccf bbbd
00000290: c22f a83d 02e9 29be 1862 22be 3b28 363e
000002a0: 5a08 d93d 98c9 d3bc e7bd 0abe 0058 fd38
000002b0: 77c1 3abe 887d 58bd 2860 293d 57b7 d5bd
000002c0: 5e0d f53d bda3 cabd a1a2 cfbd 777a fdbd
000002d0: d087 583d eef1 ffbd 20aa 46bd d858 963c
000002e0: 7490 a8bd 9b8d 273e 11d2 eabd 7ca8 503d
000002f0: fb27 283e c003 d4bd 29b0 193e 62ab c03d
00000300: ff0c 2dbe 6f87 3b3e 27bb 17be a72d 03be
00000310: 0aac 1ebe 7071 fb3c 725a b53d 7016 4a3d
00000320: f4be 62bd faed f3bd eab7 22be e09c 9cbb
00000330: b40d 4b3d be64 ca3d 367b be3d d9eb 1a3e
00000340: 8046 973b b497 15be b653 b63d ae8a d7bd
00000350: 0e56 e73d 2ff8 373e 8419 2cbe e87c 5b3d
00000360: 18c8 d4bc d324 37be 8dcd 173e 6fea abbd
00000370: 74e6 5fbd 1014 583c c04a 213c 131e 2d3e
00000380: c22d 9e3d a885 8a3c 42ad e1bd ee36 8a3d
00000390: 87a0 05be 2c83 053d 542c 68bd 9225 e43d
000003a0: 1e94 c23d f262 f43d 2409 89bd 0d6f 2a3e
000003b0: 65ef 153e e81c abbc dea9 fc3d 48d6 34be
000003c0: 9a8d 1dbe b796 1a3e 8385 0d3e 26b8 b03d
000003d0: d1a8 cabd f068 6d3c 7f9e 0e3e c853 b0bd
000003e0: 511c b3bd 55a2 1f3e b677 b8bd fc20 15be
000003f0: 2d2e efbd 89e8 8ebd 30b7 f03c 555d 33be

fc_layers.2.bias f4 [128]
0.1049504 -0.048367605 0.02537705 0.07227914 0.09478098 0.101656914 0.06146276 0.0042284876
-0.108670235 -0.12500125 0.13027313 -0.113346964 -0.10016748 0.11991081 -0.045653075 0.1075573
-0.011303231 -0.12201229 -0.10534908 0.06265414 -0.069321744 0.14134395 -0.11861423 -0.0434345
0.01444532 -0.008308619 -0.03204102 0.13809696 0.029112726 -0.08149875 -0.055070423 -0.10109793
-0.09369041 -0.04222823 0.11368096 -0.011784494 -0.013355419 -0.03473933 0.13356575 -0.030047506
-0.03202437 -0.044210255 -0.042320512 0.088266194 -0.07498913 -0.08156443 0.11641434 -0.11685735
-0.022434406 -0.05407153 0.015074134 0.094084755 -0.11848249 -0.045469105 -0.09652 -0.06167444
-0.07543942 -0.13640575 -0.05325397 -0.060229704 0.07008506 0.025395513 -0.027589507 0.13800001
-0.12127341 0.07293771 -0.044373825 0.08224441 0.0191852 0.13157976 0.025237218 0.0765084
-0.06304039 0.029713392 0.007338032 0.004518822 0.111913115 -0.02760128 -0.053237632 -0.13642934
-0.10603568 -0.1091852 0.067881316 -0.042660594 -0.13191244 -0.027176164 0.06848951 -0.060332455
-0.12136686 -0.026152298 -0.04775519 -0.114577636 0.07260688 -0.12234296 -0.016670704 -0.051947683
-0.04713037 0.08280468 0.030533373 -0.07235273 0.023785204 -0.111841075 -0.079212256 -0.039460197
-0.14315102 0.074737474 -0.05504389 -0.08091615 0.011408478 -0.06588466 0.073621064 -0.12154637
0.09217353 0.10474759 0.050303742 -0.053929865 -0.015330836 0.0035459548 -0.06420262 0.12841743
0.07658364 -0.108673945 0.064406216 -0.044673726 0.029937357 -0.020420134 -0.103524595 -0.14205898
00000000: 3cf0 d63d 1c1d 46bd 88e3 cf3c 1607 943d
00000010: 881c c23d 8031 d03d 60c0 7b3d 208f 8a3b
00000020: 808e debd 5400 00be 5266 053e 7422 e8bd
00000030: 9c24 cdbd cc93 f53d b8fe 3abd 0047 dc3d
00000040: 3031 39bc 94e1 f9bd 42c1 d7bd d050 803d
00000050: 8ff8 8dbd 78bc 103e 04ec f2bd 60e8 31bd
00000060: 10ac 6c3c e020 08bc 723d 03bd 4a69 0d3e
00000070: d07d ee3c d1e8 a6bd 8691 61bd 6e0c cfbd
00000080: c2e0 bfbd 82f7 2cbd 90d1 e83d c013 41bc
00000090: b0d0 5abc d44a 0ebd 76c5 083e 3026 f6bc
000000a0: fc2b 03bd d015 35bd 4658 2dbd e8c4 b43d
000000b0: e793 99bd 400b a7bd a46a ee3d e852 efbd
000000c0: 5cc8 b7bc 1c7a 5dbd 80f9 763c 82af c03d
000000d0: f3a6 f2bd d03d 3abd 47ac c5bd 569e 7cbd
000000e0: fc7f 9abd f3ad 0bbe d620 5abd 6cb3 76bd
000000f0: c288 8f3d 400a d03c 6403 e2bc e04f 0d3e
00000100: 325e f8bd 5e60 953d 54c1 35bd c26f a83d
00000110: 482a 9d3c d8bc 063e 48be ce3c 70b0 9c3d
00000120: 521b 81bd 8069 f33c e073 f03b a012 943b
00000130: b432 e53d 141c e2bc b40f 5abd 22b4 0bbe
00000140: 3c29 d9bd 7d9c dfbd 5c05 8b3d e0bc 2ebd
00000150: 0e14 07be 8ca0 debc 3a44 8c3d 2a1f 77bd
00000160: 308f f8bd 583d d6bc f29a 43bd aea7 eabd
00000170: eab2 943d f28e fabd 0091 88bc 18c7 54bd
00000180: c60b 41bd 8095 a93d 2021 fa3c ab2d 94bd
00000190: 30d9 c23c ef0c e5bd 093a a2bd 04a1 21bd
000001a0: 2e96 12be f60f 993d b475 61bd 5eb7 a5bd
000001b0: a0ea 3a3c 89ee 86bd a4c6 963d 4eed f8bd
000001c0: 7ac5 bc3d e885 d63d 4c0b 4e3d 90e5 5cbd
000001d0: 302e 7bbc 4063 683b aa7c 83bd dc7f 033e
000001e0: e2d7 9c3d 7290 debd 68e7 833d ccfb 36bd
000001f0: 303f f53c 2048 a7bc b404 d4bd e977 11be

fc_layers.4.weight f4 [128, 128]
-0.13139448 0.11548798 0.12675904 -0.13588898 -0.13837814 -0.04672259 0.05964704 0.068552926
0.088167 -0.08157317 -0.08580152 0.12281184 -0.11005429 -0.0068383217 0.016086191 0.12554757
0.0122293085 -0.12041434 0.078759044 0.09173992 0.020479739 -0.020804495 0.10441093 0.13938965
0.10609709 -0.1499158 -0.1129559 -0.032551117 0.084485635 -0.092922665 0.06719458 0.14240633
-0.1453023 0.011826292 0.14901282 -0.068071015 0.112964615 -0.12667964 -0.047000155 -0.07454483
0.13035627 0.001275301 0.036419958 -0.14903262 -0.11917901 0.015953675 -0.07234511 0.054381892
-0.025495335 -0.008690998 -0.09123221 -0.12851362 0.08923191 -0.14123179 -0.021660909 -0.03388825
0.12744536 -0.09230022 0.00021602213 0.0066899955 0.0976312 0.023142546 0.0336276 -0.04138025
-0.12937066 0.119188264 -0.13258271 0.06551258 -0.027035207 0.09514856 0.0967713 0.011721253
0.10920809 -0.08454336 -0.044991113 -0.113210335 -0.15199475 0.12029146 0.0008152127 0.051948056
-0.063017905 0.06906302 -0.13608465 -0.06995363 0.089899674 -0.084459625 0.026837885 -0.011000127
-0.08201803 0.058190152 -0.13342153 0.109003976 0.018001452 0.10333796 -0.09097667 0.1098768
-0.13077727 -0.027746245 0.06578371 -0.097676635 0.123291716 -0.1398283 -0.06817888 0.09239316
-0.018859416 0.10509314 0.024476528 0.13549136 -0.035579942 -0.090709545 0.14364098 0.10327546
-0.045458004 -0.017280161 0.09767161 0.12543048 0.13858126 0.010978341 0.12742229 0.07764055
0.021644473 -0.09868607 -0.021192446 -0.034513094 -0.052281857 -0.00062818825 0.054826707 -0.1352735
-0.14269467 0.11198993 0.1256368 -0.09153339 -0.043052584 0.14230485 0.059043214 -0.048380613
-0.0021895468 -0.022814482 -0.12857614 0.040539145 0.108487055 0.06584428 0.14434774 -0.15167335
0.13405682 -0.14200693 0.081439465 0.011715516 -0.12730785 0.024191067 0.1062469 -0.13184439
0.15068047 -0.06384754 0.053487197 -0.11429305 -0.014268175 0.143858 -0.12998806 0.059813097
0.04642576 -0.078884766 -0.021830127 0.13554089 -0.086228885 -0.11679428 0.09298505 0.139928
0.027657509 0.06556308 -0.07671769 -0.02312915 0.042736247 -0.014569342 -0.15234688 0.11986883
-0.12018123 0.07028657 -0.07070515 -0.028553918 -0.110857785 -0.06385785 -0.014902234 0.024034321
-0.09539017 0.009835586 -0.07131598 0.06412692 -0.0014047921 0.02308467 0.13740905 0.04837826
0.14507867 -0.14814407 0.12330003 0.11595349 0.14296786 -0.10645555 -0.10544882 0.028922006
0.093558624 0.04359743 0.15001787 -0.124471046 0.103481516 0.1320995 -0.044200756 -0.06549777
0.14086749 -0.034694247 0.1143481 -0.00023198128 0.025970995 0.061041564 -0.114287645 0.017332494
0.044957474 -0.026096225 0.039369494 0.01863785 0.12816589 0.05658576 -0.009792253 -0.019936398
0.0142908245 0.025425449 -0.014602914 -0.10690589 0.12256099 -0.021019563 0.14463623 -0.1416439
-0.099219754 -0.10796723 0.09762736 -0.08276576 -0.041435055 0.14269288 0.0013843328 -0.1504768
0.12057458 0.020809576 -0.1362136 -0.04396794 -0.08634244 0.03910598 0.061429366 0.069674954
0.078581125 -0.12929782 -0.09315063 0.10830368 -0.053340107 -0.027871445 -0.12659577 0.012156442
00000000: 468c 06be f684 ec3d 1fcd 013e 7b26 0bbe
00000010: 00b3 0dbe 3060 3fbd 7450 743d 7a65 8c3d
00000020: e690 b43d d60f a7bd b5b8 afbd c684 fb3d
00000030: 2564 e1bd 0014 e0bb 30c7 833c 8b8f 003e
00000040: 705d 483c cb9b f6bd 6c4c a13d 24e2 bb3d
00000050: 20c5 a73c 306e aabc 66d5 d53d 29bc 0e3e
00000060: 6e49 d93d 8783 19be 6c55 e7bd 5254 05bd
00000070: ce06 ad3d 3d4e bebd 509d 893d f7d2 113e
00000080: 20ca 14be 10c3 413c d196 183e d168 8bbd
00000090: fe59 e73d 4fb8 01be 3c83 40bd f6aa 98bd
000000a0: 1d7c 053e 0028 a73a 182d 153d 029c 18be
000000b0: 2014 f4bd 48b1 823c ac29 94bd 8cbf 5e3d
000000c0: 98db d0bc b064 0ebc f4d7 babd 1399 03be
000000d0: 38bf b63d 119f 10be 3872 b1bc 68ce 0abd
000000e0: 0981 023e e607 bdbd 0084 6239 c037 db3b
000000f0: def2 c73d 7095 bd3c 18bd 093d 567e 29bd
00000100: be79 04be fa18 f43d c3c3 07be 762b 863d
00000110: f078 ddbc 40dd c23d 0830 c63d 800a 403c
00000120: 7ea8 df3d 1225 adbd 9a48 38bd d2da e7bd
00000130: 83a4 1bbe 5e5b f63d 00b4 553a 7cc7 543d
00000140: 880f 81bd ea70 8d3d c659 0bbe d943 8fbd
00000150: 521d b83d 2bf9 acbd 20db db3c e039 34bc
00000160: 12f9 a7bd cc58 6e3d a79f 08be 7a3d df3d
00000170: c877 933c daa2 d33d fa51 babd 1607 e13d
00000180: 7aea 05be 184c e3bc 9cb9 863d b00a c8bd
00000190: 5e80 fc3d 262f 0fbe 5ea1 8bbd a038 bd3d
000001a0: 107f 9abc 123b d73d 0083 c83c 3fbe 0a3e
000001b0: 46bc 11bd edc5 b9bd 9f16 133e 1682 d33d
000001c0: 2c32 3abd 208f 8dbc 0e08 c83d d970 003e
000001d0: 3fe8 0d3e 80de 333c fd7a 023e 0202 9f3d
000001e0: c04f b13c ec1b cabd c89b adbc 9a5d 0dbd
000001f0: 8025 56bd 00ad 24ba f891 603d 2385 0abe
00000200: 8d1e 12be fa5a e53d efa6 003e dc75 bbbd
00000210: e857 30bd 5db8 113e 4cd7 713d c02a 46bd
00000220: 807e 0fbb 70e5 babc 77a9 03be 600c 263d
00000230: 762e de3d 5ed9 863d e5cf 133e 4250 1bbe
00000240: 3146 093e 446a 11be bcc9 a63d 70f2 3f3c
00000250: fd5c 02be 582c c63c fa97 d93d 3702 07be
00000260: fb4b 1a3e 80c2 82bd 6415 5b3d 7912 eabd
00000270: 10c5 69bc 834f 133e 971b 05be 94fe 743d
00000280: f028 3e3d 568e a1bd 18d5 b2bc 3bcb 0a3e
00000290: c598 b0bd d731 efbd f26e be3d 4949 0f3e
000002a0: 0092 e23c f045 863d 2a1e 9dbd 5879 bdbc
000002b0: 340c 2f3d 40b4 6ebc d200 1cbe ca7d f53d
000002c0: 9421 f6bd 68f2 8f3d ddcd 90bd e8e9 e9bc
000002d0: 6809 e3bd e8c7 82bd 8028 74bc a0e3 c43c
000002e0: ec5b c3bd 7025 213c 1d0e 92bd fa54 833d
000002f0: 0021 b8ba 101c bd3c f5b4 0c3e 4828 463d
00000300: 818f 143e 14b3 17be ba84 fc3d 0679 ed3d
00000310: 2b66 123e 5e05 dabd 8df5 d7bd d8ed ec3c
00000320: aa9b bf3d 3893 323d 499e 193e adea febd
00000330: 1eee d33d 1745 073e da0b 35bd b223 86bd
00000340: 913f 103e 8e1b 0ebd 562f ea3d 0040 73b9
00000350: 20c1 d43c b806 7a3d a40f eabd e0fc 8d3c
00000360: 5425 383d c0c7 d5bc e841 213d 68ae 983c
00000370: eb3d 033e 78c6 673d b06f 20bc a851 a3bc
00000380: 1024 6a3c 0849 d03c 1041 6fbc 7af1 dabd
00000390: 4201 fb3d 3831 acbc 851b 143e 190b 11be
000003a0: ba33 cbbd ec1d ddbd daf0 c73d 1881 a9bd
000003b0: ceb7 29bd 151e 123e 8072 b53a 9716 1abe
000003c0: ceef f63d d878 aa3c 947b 0bbe ba17 34bd
000003d0: 4ed4 b0bd 982d 203d 5c9d 7b3d beb1 8e3d
000003e0: 24ef a03d a666 04be c2c5 bebd 52ce dd3d
000003f0: 287b 5abd a852 e4bc 52a2 01be d02b 473c

fc_layers.4.bias f4 [128]
-0.07546333 0.0077893734 -0.04692675 0.051553138 0.05420942 -0.08044468 0.06615362 -0.05552491
0.00016397983 -0.05925832 0.07231971 -0.016285092 0.059115462 -0.08040583 -0.016691007 0.0119580105
0.0880006 -0.0033864751 -0.044399407 -0.035878643 0.088310726 -0.013532922 0.0699446 0.075193785
0.025201254 -0.022109963 -0.05833388 0.008511387 -0.031360343 0.0010272786 -0.075594366 0.030331224
-0.045524307 0.06980776 -0.06319387 0.01622478 -0.010610141 0.07248864 -0.07120977 -0.074587874
-0.06938562 -0.07251312 -0.008206621 -0.0418524 -0.07419302 0.02255971 0.059943847 0.067786016
-0.0304164 0.014994018 -0.031609956 -0.0071278214 0.078112625 0.029978074 -0.034153678 0.011778958
0.035986915 0.04750479 0.0632539 -0.052611817 -0.06703103 -0.006454222 -0.050418653 0.0712911
0.074504204 -0.015626274 -0.009056054 -0.06353297 -0.07891699 0.060800605 -0.02221153 0.013555817
0.07149773 0.058356963 -0.012739778 0.023426443 0.06441494 -0.050438788 -0.08001988 -0.015610255
0.0031015724 0.022601448 -0.07338384 -0.06635401 0.0045751557 -0.01818142 0.084344216 0.03653396
-0.072562836 -0.081542104 -0.0045242086 -0.067173205 0.07723894 -0.083334126 -0.014200024 0.03788524
-0.024042025 -0.082394846 -0.008004643 0.018929899 0.075737126 -0.044387396 -0.014518492 0.03769251
-0.07343635 0.059719823 0.08756638 -0.018772773 -0.056517217 0.06958855 0.07892845 -0.028869033
0.08086435 -0.05117385 -0.04008925 -0.04843974 -0.07634971 -0.043648288 0.064264186 -0.073274836
0.013155505 -0.009380139 -0.029000636 -0.0021943673 -0.027484108 0.059389003 -0.05545969 -0.08089963
00000000: 858c 9abd 003e ff3b 4436 40bd 6229 533d
00000010: b20a 5e3d 2ec0 a4bd 8d7b 873d 176e 63bd
00000020: 00f2 2b39 dab8 72bd 5b1c 943d 5068 85bc
00000030: 0e23 723d d0ab a4bd 94bb 88bc 88eb 433c
00000040: a939 b43d a0ef 5dbb 27dc 35bd 7cf5 12bd
00000050: 41dc b43d 30b9 5dbc 1d3f 8f3d 33ff 993d
00000060: dc72 ce3c f41f b5bc 82ef 6ebd 5873 0b3c
00000070: b473 00bd c0a5 863a 38d1 9abd 3079 f83c
00000080: b277 3abd 5ff7 8e3d ca6b 81bd d4e9 843c
00000090: 28d6 2dbc ed74 943d 6ed6 91bd 87c1 98bd
000000a0: 0c1a 8ebd c281 94bd 1075 06bc 6c6d 2bbd
000000b0: 83f2 97bd 24cf b83c ae87 753d 65d3 8a3d
000000c0: d02b f9bc 78a9 753c 7179 01bd 8090 e9bb
000000d0: 83f9 9f3d 9494 f53c bae4 0bbd 88fc 403c
000000e0: 0467 133d 6294 423d 438b 813d 7d7f 57bd
000000f0: 9147 89bd f07d d3bb ca83 4ebd 1101 923d
00000100: a995 983d ac02 80bc d85f 14bc 931d 82bd
00000110: 3b9f a1bd 0e0a 793d f4f4 b5bc 3819 5e3c
00000120: 676d 923d b607 6f3d 80ba 50bc d0e8 bf3c
00000130: fbeb 833d e798 4ebd 76e1 a3bd 28c2 7fbc
00000140: c043 4b3b ac26 b93c 444a 96bd 9ce4 87bd
00000150: 30eb 953b 34f1 94bc a9bc ac3d a2a4 153d
00000160: d39b 94bd 8cff a6bd d03f 94bb 1b92 89bd
00000170: 732f 9e3d 15ab aabd 38a7 68bc 8e2d 1b3d
00000180: c8f3 c4bc a1be a8bd e825 03bc e012 9b3c
00000190: 111c 9b3d 8fcf 35bd f8de 6dbc 7663 1a3d
000001a0: cc65 96bd c69c 743d 0156 b33d 5cc9 99bc
000001b0: 997e 67bd 7184 8e3d 3da5 a13d c07e ecbc
000001c0: 359c a53d ac9b 51bd a034 24bd c068 46bd
000001d0: 3d5d 9cbd 8cc8 32bd f19c 833d 1e11 96bd
000001e0: 308a 573c 28af 19bc be92 edbc 60cf 0fbb
000001f0: 5a26 e1bc e241 733d b329 63bd b5ae a5bd

fc_layers.6.weight f4 [6, 128]
-0.11145038 0.11083384 -0.083461255 0.059324488 0.20630585 -0.17588373 -0.08634421 -0.088559814
-0.16759051 0.1387709 0.04965295 0.16271947 -0.17163248 0.0142033845 -0.048548207 0.06111537
0.00036415458 -0.07522109 -0.074686065 0.08934985 -0.05222769 0.04051648 -0.13153873 0.08263634
-0.14781283 -0.08266957 0.012755692 0.033428267 -0.026217505 -0.13601112 0.17521699 -0.0073292106
0.032294825 0.059580997 0.19516276 0.12847148 0.01572068 -0.19017667 0.08035587 -0.20724559
-0.16458037 -0.03794533 -0.14317098 0.13853465 0.0688016 -0.07945208 0.14138128 0.20784943
0.025780424 0.20746501 -0.045838997 -0.16435884 0.053330228 0.07614039 0.14516641 -0.17933103
-0.091538824 -0.01976934 -0.16168743 0.09116043 -0.030684426 0.15880121 0.048287764 0.083983615
0.15964334 0.18556233 -0.057179272 -0.173221 0.095485285 -0.040575802 -0.1955538 -0.10317671
-0.107319996 -0.061531693 -0.19954936 0.17895906 -0.13551039 0.017258555 0.106531635 -0.19160604
-0.16240153 0.037927136 -0.038706347 0.13652875 -0.16932423 -0.122297786 0.1723501 0.01792793
0.07164557 -0.037962228 0.1495048 0.05469303 -0.17687157 0.19224726 0.0017712116 0.19981368
-0.07185322 -0.15259022 0.16531153 -0.063314766 0.015076369 0.15370344 0.20189701 -0.19451109
0.14122199 0.19806124 0.04131551 0.033558726 0.16268848 -0.040960908 -0.0049649924 0.06756131
-0.1787914 0.029752761 -0.15801626 0.04658194 -0.01033932 0.030955598 -0.12963489 0.11829333
-0.19952522 -0.0023205578 -0.1382249 -0.18013489 -0.17514612 -0.028314546 0.022768319 -0.0413267
-0.20446028 -0.1868685 0.104921296 0.16827829 -0.091907844 0.10875259 0.0030617565 -0.19872263
-0.05899194 0.1571254 -0.08910001 -0.14623812 -0.105108656 -0.09729326 0.047505572 -0.09337312
-0.017621696 -0.20550856 0.2063634 -0.1917321 0.20372318 0.13684805 0.009603053 0.11699219
0.16988795 -0.19570586 0.19224985 0.20721541 0.07551418 0.0105071515 0.17007057 0.14362769
-0.19807026 0.13769217 -0.05712457 -0.17111464 0.17655547 -0.1708186 -0.19390994 -0.13638702
-0.096212916 -0.208964 0.18777294 -0.047350913 0.024252325 0.04405673 0.13177274 -0.025076196
-0.14594826 -0.05805023 -0.11239294 -0.19696732 0.0028143674 -0.17179021 0.06020768 -0.18102309
-0.03940305 0.19960754 0.20716102 0.049320266 0.03770849 -0.009591922 -0.113724194 -0.04875064
-0.13421685 0.11801465 0.14860244 0.18333931 -0.110310785 0.022603825 -0.18214256 -0.11854777
0.20263676 0.16102766 0.17506869 0.096923545 0.15601902 -0.05363795 -0.19556803 0.08109902
-0.06716679 0.12592112 -0.14567634 -0.17359528 0.18490528 0.18176715 -0.20964271 0.06620012
0.15130268 -0.0488566 -0.044426844 0.20759027 0.18515567 -0.15091948 0.115779504 0.09718846
0.09904681 -0.055810645 -0.029141754 0.13374801 -0.1346716 0.084349886 -0.17698583 -0.0010454357
0.13146 0.13980298 0.08450724 -0.016691536 0.16843514 -0.13353258 0.07441284 0.15968601
0.08486758 -0.17279348 0.05773197 -0.081261754 0.0971203 -0.014678806 0.11177398 -0.20350468
0.06859706 0.10412918 0.049858198 -0.01824218 -0.013792992 0.019344345 -0.01482667 0.11068
00000000: 1940 e4bd dafc e23d bced aabd 3cfe 723d
00000010: d741 533e dd1a 34be 3cd5 b0bd d95e b5bd
00000020: d99c 2bbe f519 0e3e e460 4b3d ef9f 263e
00000030: 6dc0 2fbe 50b5 683c 7cda 46bd 1c54 7a3d
00000040: 00ec be39 840d 9abd 02f5 98bd 0efd b63d
00000050: b4ec 55bd 9cf4 253d 17b2 06be 3e3d a93d
00000060: 3f5c 17be aa4e a9bd 40fd 503c 14ec 083d
00000070: 18c6 d6bc 8046 0bbe 156c 333e e029 f0bb
00000080: 9447 043d 340b 743d bfd8 473e 078e 033e
00000090: a8c8 803c acbd 42be 9e91 a43d 3038 54be
000000a0: c287 28be 906c 1bbd 6a9b 12be 07dc 0d3e
000000b0: dae7 8c3d c6b7 a2bd 41c6 103e 7bd6 543e
000000c0: 7831 d33c b571 543e acc1 3bbd af4d 28be
000000d0: cc70 5a3d 7eef 9b3d 81a6 143e 8ea2 37be
000000e0: b578 bbbd 50f3 a1bc 6491 25be 52b2 ba3d
000000f0: e85d fbbc c99c 223e 64c9 453d 9aff ab3d
00000100: 8b79 233e 0d04 3e3e d034 6abd d960 31be
00000110: ca8d c33d d032 26bd 413f 48be 504e d3bd
00000120: 96ca dbbd a808 7cbd ab56 4cbe 0b41 373e
00000130: 3cc3 0abe d061 8d3c 422d da3d 6034 44be
00000140: 964c 26be 7c59 1b3d 8c8a 1ebd 31ce 0b3e
00000150: 5563 2dbe 4377 fabd 8b7c 303e 98dd 923c
00000160: eaba 923d 487e 1bbd c917 193e cc05 603d
00000170: d21d 35be 77dc 443e 0028 e83a f59b 4c3e
00000180: c827 93bd 9c40 1cbe 6d47 293e 2cab 81bd
00000190: e002 773c 6f64 1d3e 17be 4e3e ea2d 47be
000001a0: 7f9c 103e 91d0 4a3e 743a 293d e074 093d
000001b0: cf97 263e a0c6 27bd 60b1 a2bb 965d 8a3d
000001c0: 1815 37be 10bc f33c 04cf 21be b4cc 3e3d
000001d0: 4066 29bc 9896 fd3c 02bf 04be c643 f23d
000001e0: 5750 4cbe 8014 18bb d48a 0dbe 4875 38be
000001f0: 8159 33be e8f3 e7bc a084 ba3c 3046 29bd
00000200: 095e 51be 755a 3fbe fae0 d63d 2551 2c3e
00000210: 2e3a bcbd aeb9 de3d c0a7 483b f27d 4bbe
00000220: 88a1 71bd 7be5 203e 117a b6bd 72bf 15be
00000230: 3543 d7bd b041 c7bd 3495 423d 683a bfbd
00000240: 605b 90bc d670 52be ed50 533e 6b55 44be
00000250: cf9c 503e e521 0c3e 2056 1d3c 9a99 ef3d
00000260: 1bf7 2d3e 1e67 48be 25dd 443e 4730 543e
00000270: 2ea7 9a3d 3026 2c3c fb26 2e3e 2313 133e
00000280: eed2 4abe 2dff 0c3e 74fb 69bd ad38 2fbe
00000290: f5ca 343e 12eb 2ebe 5490 46be 0aa9 0bbe
000002a0: 470b c5bd a9fa 55be 8d47 403e 08f3 41bd
000002b0: d0ac c63c d474 343d 6fef 063e 986c cdbc
000002c0: 7673 15be 14c6 6dbd 452e e6bd cdb1 49be
000002d0: 4071 383b c6e9 2fbe 549c 763d 1e5e 39be
000002e0: 1865 21bd eb65 4c3e 0522 543e 0c04 4a3d
000002f0: 3874 1a3d 7027 1dbc 3be8 e8bd c0ae 47bd
00000300: 2470 09be aab1 f13d 3d2b 183e 4dbd 3b3e
00000310: 9fea e1bd a82b b93c 9483 3abe 2cc9 f2bd
00000320: 0380 4f3e 6fe4 243e 3545 333e da7f c63d
00000330: 73c3 1f3e 78b3 5bbd fc42 48be 3e17 a63d
00000340: be8e 89bd 77f1 003e 2e2c 15be f6c2 31be
00000350: cf57 3d3e 2b21 3a3e 94ac 56be ee93 873d
00000360: 17ef 1a3e dc1d 48bd ecf8 35bd 8b92 543e
00000370: 7399 3d3e a38a 1abe ce1d ed3d be0a c73d
00000380: 0ed9 ca3d b499 64bd b0ba eebc 3df5 083e
00000390: 5ae7 09be a2bf ac3d c63b 35be 0007 89ba
000003a0: 739d 063e 8328 0f3e 2212 ad3d b0bc 88bc
000003b0: 437a 2c3e c4bc 08be c265 983d bb84 233e
000003c0: 0ecf ad3d c6f0 30be 5c78 6c3d 906c a6bd
000003d0: 02e7 c63d 607f 70bc c2e9 e43d 8863 50be
000003e0: 9e7c 8c3d ae41 d53d 1c38 4c3d a070 95bc
000003f0: 00fc 61bc 0878 9e3c 90eb 72bc 32ac e23d

fc_layers.6.bias f4 [6]
0.072293185 0.08144491 -0.008388393 -0.046326257 0.0206898 -0.06465941
00000000: 730e 943d 97cc a63d 786f 09bc 9ac0 3dbd
00000010: a87d a93c 276c 84bd

fc_layers.1.weight f4 [47]
1.0 1.0 1.0 1.0 1.0 1.0 1.0 1.0
1.0 1.0 1.0 1.0 1.0 1.0 1.0 1.0
1.0 1.0 1.0 1.0 1.0 1.0 1.0 1.0
1.0 1.0 1.0 1.0 1.0 1.0 1.0 1.0
1.0 1.0 1.0 1.0 1.0 1.0 1.0 1.0
1.0 1.0 1.0 1.0 1.0 1.0 1.0
00000000: 0000 803f 0000 803f 0000 803f 0000 803f
00000010: 0000 803f 0000 803f 0000 803f 0000 803f
00000020: 0000 803f 0000 803f 0000 803f 0000 803f
00000030: 0000 803f 0000 803f 0000 803f 0000 803f
00000040: 0000 803f 0000 803f 0000 803f 0000 803f
00000050: 0000 803f 0000 803f 0000 803f 0000 803f
00000060: 0000 803f 0000 803f 0000 803f 0000 803f
00000070: 0000 803f 0000 803f 0000 803f 0000 803f
00000080: 0000 803f 0000 803f 0000 803f 0000 803f
00000090: 0000 803f 0000 803f 0000 803f 0000 803f
000000a0: 0000 803f 0000 803f 0000 803f 0000 803f
000000b0: 0000 803f 0000 803f 0000 803f

fc_layers.1.bias f4 [47]
0.0 0.0 0.0 0.0 0.0 0.0 0.0 0.0
0.0 0.0 0.0 0.0 0.0 0.0 0.0 0.0
0.0 0.0 0.0 0.0 0.0 0.0 0.0 0.0
0.0 0.0 0.0 0.0 0.0 0.0 0.0 0.0
0.0 0.0 0.0 0.0 0.0 0.0 0.0 0.0
0.0 0.0 0.0 0.0 0.0 0.0 0.0
00000000: 0000 0000 0000 0000 0000 0000 0000 0000
00000010: 0000 0000 0000 0000 0000 0000 0000 0000
00000020: 0000 0000 0000 0000 0000 0000 0000 0000
00000030: 0000 0000 0000 0000 0000 0000 0000 0000
00000040: 0000 0000 0000 0000 0000 0000 0000 0000
00000050: 0000 0000 0000 0000 0000 0000 0000 0000
00000060: 0000 0000 0000 0000 0000 0000 0000 0000
00000070: 0000 0000 0000 0000 0000 0000 0000 0000
00000080: 0000 0000 0000 0000 0000 0000 0000 0000
00000090: 0000 0000 0000 0000 0000 0000 0000 0000
000000a0: 0000 0000 0000 0000 0000 0000 0000 0000
000000b0: 0000 0000 0000 0000 0000 0000

fc_layers.1.running_mean f4 [47]
0.0 0.0 0.0 0.0 0.0 0.0 0.0 0.0
0.0 0.0 0.0 0.0 0.0 0.0 0.0 0.0
0.0 0.0 0.0 0.0 0.0 0.0 0.0 0.0
0.0 0.0 0.0 0.0 0.0 0.0 0.0 0.0
0.0 0.0 0.0 0.0 0.0 0.0 0.0 0.0
0.0 0.0 0.0 0.0 0.0 0.0 0.0
00000000: 0000 0000 0000 0000 0000 0000 0000 0000
00000010: 0000 0000 0000 0000 0000 0000 0000 0000
00000020: 0000 0000 0000 0000 0000 0000 0000 0000
00000030: 0000 0000 0000 0000 0000 0000 0000 0000
00000040: 0000 0000 0000 0000 0000 0000 0000 0000
00000050: 0000 0000 0000 0000 0000 0000 0000 0000
00000060: 0000 0000 0000 0000 0000 0000 0000 0000
00000070: 0000 0000 0000 0000 0000 0000 0000 0000
00000080: 0000 0000 0000 0000 0000 0000 0000 0000
00000090: 0000 0000 0000 0000 0000 0000 0000 0000
000000a0: 0000 0000 0000 0000 0000 0000 0000 0000
000000b0: 0000 0000 0000 0000 0000 0000

fc_layers.1.running_var f4 [47]
1.0 1.0 1.0 1.0 1.0 1.0 1.0 1.0
1.0 1.0 1.0 1.0 1.0 1.0 1.0 1.0
1.0 1.0 1.0 1.0 1.0 1.0 1.0 1.0
1.0 1.0 1.0 1.0 1.0 1.0 1.0 1.0
1.0 1.0 1.0 1.0 1.0 1.0 1.0 1.0
1.0 1.0 1.0 1.0 1.0 1.0 1.0
00000000: 0000 803f 0000 803f 0000 803f 0000 803f
00000010: 0000 803f 0000 803f 0000 803f 0000 803f
00000020: 0000 803f 0000 803f 0000 803f 0000 803f
00000030: 0000 803f 0000 803f 0000 803f 0000 803f
00000040: 0000 803f 0000 803f 0000 803f 0000 803f
00000050: 0000 803f 0000 803f 0000 803f 0000 803f
00000060: 0000 803f 0000 803f 0000 803f 0000 803f
00000070: 0000 803f 0000 803f 0000 803f 0000 803f
00000080: 0000 803f 0000 803f 0000 803f 0000 803f
00000090: 0000 803f 0000 803f 0000 803f 0000 803f
000000a0: 0000 803f 0000 803f 0000 803f 0000 803f
000000b0: 0000 803f 0000 803f 0000 803f

fc_layers.2.weight f4 [128, 47]
-0.06989515 0.10290803 -0.13665982 -0.039209828 -0.12837386 0.0650817 -0.17008492 -0.063165024
-0.1020065 0.17276536 -0.16810001 -0.032823905 0.07083069 -0.16689649 -0.051964253 -0.072083026
0.08523308 -0.11311337 -0.009504899 -0.018124714 0.040589407 0.09521787 -0.16057342 -0.07583217
0.058586195 0.016092584 -0.11190471 0.14364748 -0.12313177 -0.12764852 0.14222209 -0.1709281
0.17292173 0.13408227 0.18332438 0.06597088 -0.073999144 -0.11786425 0.019808888 0.106637254
0.070169285 0.18513368 -0.026468307 0.104059294 0.17180197 -0.061997503 -0.15579443 -0.0632167
0.07661243 0.12162994 0.09608956 0.09732188 0.09394808 -0.119419046 -0.098906115 0.068921015
-0.060610466 -0.12810557 -0.12137372 -0.093138784 -0.027065873 0.18002816 0.14455353 0.049696207
-0.13903469 0.035937443 0.023737416 -0.067018844 -0.06277499 0.07475962 0.018590257 0.052167445
0.027065292 0.101857916 0.039638624 -0.022180632 0.15749188 -0.18066247 0.16870962 -0.17081043
-0.14336495 -0.03445369 -0.13867222 -0.15133321 0.03320332 -0.07548079 -0.015583396 0.11378519
-0.05065088 0.00759618 -0.12107255 -0.027562082 -0.17972666 -0.15899853 0.04787591 -0.17210148
0.0005904138 0.17536487 -0.034087494 0.10052301 0.0044665933 0.14239539 -0.16305067 -0.14863843
-0.05978903 0.10276221 0.0087323785 -0.097546026 0.11085425 0.08793099 0.0040765554 -0.10436335
-0.11343571 0.09424709 0.10076378 -0.095791794 -0.16309102 -0.05670668 0.09039469 -0.08665461
0.07014783 -0.07046444 0.05630353 -0.09978926 -0.09250586 0.10523777 0.060315385 -0.1731342
0.12627353 -0.11580115 -0.11779737 -0.116837375 -0.14891538 -0.0042734295 0.11314772 -0.17125611
-0.057594016 0.12756161 -0.1130759 0.18074833 0.090095446 -0.057778835 -0.02641192 -0.026209489
0.09108709 0.17725755 -0.12843007 -0.13234924 0.12549387 0.1797681 0.12806295 -0.1441227
-0.034607306 0.038483858 0.12839459 -0.08392324 0.10423781 -0.11144631 0.101013675 -0.016932696
-0.040000588 0.07039218 0.0058051646 0.013390154 0.0690742 0.068373546 -0.06369721 -0.02753596
0.035433754 -0.0020230561 0.15131001 0.17421816 0.09341489 -0.04735577 -0.08750933 -0.016623914
0.16202821 0.048615977 -0.04282084 0.0016711056 -0.17687008 -0.06807626 0.1734759 0.17833646
0.09254752 -0.16401091 0.032524034 -0.014704436 0.026266083 -0.06560772 0.110805556 0.077228114
0.078996494 0.10411151 -0.12676181 0.1030197 0.0368744 0.06770055 0.08778398 0.060117126
0.1825885 -0.014648616 -0.015687436 0.00389646 0.031486854 0.034922495 -0.038329884 -0.08304152
-0.03044255 0.102376714 0.017015114 0.18171357 0.063324526 -0.14217909 0.15639077 -0.03488511
0.16841598 0.15433685 0.17569943 -0.06469738 -0.0564927 0.107054844 0.0067902207 0.137789
0.011871025 0.114270106 -0.13264279 -0.13932316 0.11432974 0.06033458 0.0026328713 0.08261226
0.15247138 -0.14224833 0.13266806 -0.07823425 -0.18492375 0.069781765 0.1578423 -0.023318246
0.08672245 0.100579366 0.07296912 -0.15480226 0.10752638 0.15120436 -0.10288228 0.14857627
0.024560556 0.10724677 -0.02915667 -0.032786578 0.13426454 0.123952165 0.18459193 -0.122902036
00000000: 3025 8fbd 72c1 d23d 8df0 0bbe 7c9a 20bd
00000010: 7074 03be 8e49 853d be2a 2ebe aa5c 81bd
00000020: c9e8 d0bd 67e9 303e 6922 2cbe 5c72 06bd
00000030: ae0f 913d eae6 2abe 78d8 54bd 44a0 93bd
00000040: ae8e ae3d fca7 e7bd 70ba 1bbc 487a 94bc
00000050: 1441 263d 9601 c33d 5c6d 24be e64d 9bbd
00000060: 14f8 6f3d 98d4 833c 4c2e e5bd 5318 133e
00000070: 822c fcbd 4bb6 02be aba2 113e c707 2fbe
00000080: 6512 313e dd4c 093e 63b9 3b3e be1b 873d
00000090: dd8c 97bd d062 f1bd 4046 a23c a264 da3d
000000a0: eab4 8f3d af93 3d3e 10d4 d8bc 0a1d d53d
000000b0: dbec 2f3e 18f1 7dbd 9388 1fbe c277 81bd
000000c0: fae6 9c3d 1e19 f93d 9aca c43d b250 c73d
000000d0: da67 c03d f991 f4bd 4a8f cabd 7626 8d3d
000000e0: ae42 78bd 1b2e 03be c992 f8bd 8cbf bebd
000000f0: 40b9 ddbc 4d59 383e d705 143e 408e 4b3d
00000100: 1c5f 0ebe 2433 133d f874 c23c 2d41 89bd
00000110: 2d90 80bd 921b 993d 984a 983c 88ad 553d
00000120: 08b8 dd3c e29a d03d 1c5c 223d 28b4 b5bc
00000130: 8d45 213e 95ff 38be 37c2 2c3e eee8 2ebe
00000140: 43ce 12be 501f 0dbd 1700 0ebe 18f7 1abe
00000150: 3400 083d ac95 9abd 8051 7fbc 3608 e93d
00000160: 4c77 4fbd 60e9 f83b e3f4 f7bd e0c9 e1bc
00000170: 440a 38be 83d0 22be 8819 443d 5f3b 30be
00000180: 00c6 1a3a d992 333e 549f 0bbd 02df cd3d
00000190: 805c 923b 19d0 113e c1f6 26be ac34 18be
000001a0: 58e5 74bd fe74 d23d 4012 0f3c 36c6 c7bd
000001b0: 8e07 e33d 2a15 b43d a094 853b 74bc d5bd
000001c0: fb50 e8bd 9e04 c13d 3e5d ce3d 7d2e c4bd
000001d0: 5501 27be 4445 68bd da20 b93d f977 b1bd
000001e0: aaa9 8f3d a94f 90bd 889e 663d 505e ccbd
000001f0: b673 bdbd e686 d73d 440d 773d 174a 31be
00000200: d94d 013e 2729 edbd bf3f f1bd 6f48 efbd
00000210: 467d 18be 2008 8cbb feb9 e73d c35d 2fbe
00000220: b4e7 6bbd 839f 023e 5694 e7bd 1716 393e
00000230: f683 b83d 80a9 6cbd d05d d8bc 48b5 d6bc
00000240: de8b ba3d 0183 353e 2c83 03be 8f86 07be
00000250: 7781 003e 2115 383e ef22 033e e794 13be
00000260: 64c0 0dbd 40a1 1d3d df79 033e f3df abbd
00000270: a27a d53d f73d e4bd 42e0 ce3d 70b6 8abc
00000280: a8d7 23bd c629 903d 4039 be3b 6062 5b3c
00000290: c676 8d3d 6e07 8c3d af73 82bd 1893 e1bc
000002a0: fc22 113d 4095 04bb 03f1 1a3e 3f66 323e
000002b0: 4e50 bf3d 20f8 41bd 1738 b3bd e02e 88bc
000002c0: b9ea 253e 8c21 473d e864 2fbd 0009 db3a
000002d0: 6e1d 35be 916b 8bbd aba3 313e d59d 363e
000002e0: 8e89 bd3d 7af2 27be ec37 053d e0ea 70bc
000002f0: f82b d73c 575d 86bd 06ee e23d c629 9e3d
00000300: eac8 a13d 6a38 d53d d9cd 01be fefb d23d
00000310: 9c09 173d 96a6 8a3d 16c8 b33d 603d 763d
00000320: 7bf8 3a3e c000 70bc f082 80bc c05b 7f3b
00000330: 5cf8 003d e40a 0f3d ccff 1cbd ac11 aabd
00000340: a862 f9bc e2aa d13d 4863 8b3c 1f13 3a3e
00000350: 4ab0 813d 6597 11be e724 203e b0e3 0ebd
00000360: 3d75 2c3e 7b0a 1e3e 8dea 333e 0f80 84bd
00000370: e464 67bd 923f db3d 8080 de3b 8f18 0d3e
00000380: b07e 423c 7206 ea3d 83d3 07be bbaa 0ebe
00000390: b625 ea3d 6421 773d 408c 2c3b 9e30 a93d
000003a0: 7521 1c3e 8ca9 11be 23da 073e 4739 a0bd
000003b0: a75c 3dbe bee9 8e3d 69a1 213e e805 bfbc
000003c0: 8a9b b13d 8efc cd3d d670 953d 7c84 1ebe
000003d0: ca36 dc3d 51d5 1a3e f2b3 d2bd 6124 183e
000003e0: 3833 c93c 32a4 db3d f8d9 eebc 384b 06bd
000003f0: a57c 093e a2da fd3d ab05 3d3e 10b4 fbbd

fc_layers.2.bias f4 [128]
0.10058078 -0.07238965 -0.025469437 -0.1108568 0.015221998 0.1145069 0.026993498 0.06556009
0.11870727 0.13210574 -0.11446531 0.016696125 0.11341593 0.07033378 0.117687315 -0.000752151
0.10320598 0.12937412 -0.10667159 0.04856266 0.1242592 -0.014406696 -0.064344406 0.11326465
0.0069201738 0.024166852 0.022807032 0.11811173 -0.024478517 0.012936458 -0.13453859 -0.01512903
-0.07900759 0.010484427 -0.018793449 0.13749516 0.030784696 0.02266939 -0.011979759 0.09662217
-0.032211013 -0.024781495 -0.10497104 0.11085978 0.0720585 -0.08955213 -0.113514125 0.11417115
0.0596582 -0.070724264 -0.009811416 0.056348383 -0.100399256 -0.11200583 0.037257984 -0.09792551
-0.072684206 -0.030815363 -0.13588804 0.122956276 0.14397433 -0.12253016 -0.14533821 0.10334699
-0.0008376241 -0.13518475 0.015217006 0.03128913 0.037075117 0.048917532 0.07927027 0.061358392
0.028192207 -0.02045083 0.024749637 0.005931467 0.13616908 0.016880587 0.030804753 0.096268296
0.07723907 -0.1088766 0.12703368 0.11449838 0.11155331 -0.04800622 -0.0463643 -0.028443731
0.04635091 -0.121061675 -0.0852813 -0.12610026 -0.11189644 -0.05906219 -0.073283695 0.044970706
-0.09542011 -0.05519724 -0.042929925 0.04219842 0.07358223 0.058154806 -0.011426479 -0.100572065
0.0008779764 0.053906217 -0.023953907 -0.09819171 -0.11935896 -0.09153229 -0.092746705 0.11621708
-0.09349258 0.06664926 -0.14368725 0.067653105 -0.064863816 0.09571086 -0.12232463 -0.11976956
0.08592768 0.0914862 -0.13617593 0.014667526 0.026913956 -0.11970477 -0.08912401 0.08736782
00000000: 4cfd cd3d 0641 94bd 48a5 d0bc e408 e3bd
00000010: b065 793c 9882 ea3d 7821 dd3c 5e44 863d
00000020: cc1c f33d ba46 073e ca6c eabd 50c6 883c
00000030: 9c46 e83d 280b 903d 0c06 f13d 002c 45ba
00000040: a85d d33d a67a 043e a276 dabd a4e9 463d
00000050: 9c7b fe3d 100a 6cbc 00c7 83bd 4cf7 e73d
00000060: a0c2 e23b 90f9 c53c d0d5 ba3c 90e4 f13d
00000070: 2c87 c8bc 70f3 533c 7cc4 09be c0df 77bc
00000080: bbce a1bd e0c6 2b3c b8f4 99bc 88cb 0c3e
00000090: 3030 fc3c 28b5 b93c c046 44bc d8e1 c53d
000000a0: b2ef 03bd 9002 cbbc 0efb d6bd 740a e33d
000000b0: 6893 933d 1b67 b7bd 187a e8bd 90d2 e93d
000000c0: 285c 743d e2d7 90bd 10c0 20bc 90cd 663d
000000d0: 209e cdbd 5063 e5bd d49b 183d 2b8d c8bd
000000e0: 75db 94bd 8070 fcbc 3c26 0bbe 80d0 fb3d
000000f0: 026e 133e 18f1 fabd 8ad3 14be 96a7 d33d
00000100: 0094 5bba df6d 0abe c050 793c 0829 003d
00000110: 14dc 173d c05d 483d 7458 a23d f052 7b3d
00000120: 58f3 e63c 8088 a7bc c0bf ca3c c05c c23b
00000130: e86f 0b3e 2849 8a3c 405a fc3c 5028 c53d
00000140: 842f 9e3d b2fa debd 1e15 023e 207e ea3d
00000150: 1076 e43d 2ca2 44bd 7ee8 3dbd d402 e9bc
00000160: 74da 3d3d 2fef f7bd f6a7 aebd 6d20 01be
00000170: f629 e5bd 32eb 71bd c315 96bd 3433 383d
00000180: 9e6b c3bd 8016 62bd 4ad7 2fbd 40d8 2c3d
00000190: 48b2 963d bc33 6e3d 2036 3bbc baf8 cdbd
000001a0: 0028 663a c4cc 5c3d fc3a c4bc bc18 c9bd
000001b0: 7872 f4bd 4875 bbbd fcf1 bdbd 3803 ee3d
000001c0: 0a79 bfbd 687f 883d c022 13be b68d 8a3d
000001d0: 52d7 84bd 0e04 c43d 5685 fabd be49 f5bd
000001e0: dafa af3d 1e5d bb3d b471 0bbe 1050 703c
000001f0: a87a dc3c c627 f5bd a686 b6bd e6ed b23d

fc_layers.4.weight f4 [128, 128]
0.07487264 -0.039469577 -0.14186016 -0.11449754 -0.13288076 -0.024044558 -0.14668638 0.040114388
-0.14083368 -0.036035396 0.025629431 -0.07993516 0.12546374 -0.113047406 -0.015782923 0.15168257
0.13723625 -0.06292919 -0.0033551157 0.11942391 0.063025296 -0.07513748 0.04074943 0.14536746
0.11800833 -0.12817505 0.06418587 -0.015288785 -0.07462648 0.13369481 -0.019329384 -0.025403708
-0.003481865 -0.047875054 -0.008600116 0.100992516 0.09917469 0.009847835 -0.14546855 -0.0646904
-0.014812708 -0.06823575 0.041892573 0.10956903 0.12992986 -0.051917545 0.007605806 0.052434355
0.011732236 0.082402736 -0.06800351 0.022582531 -0.13149536 -0.1213785 -0.018981338 0.059849635
-0.10508865 -0.06628552 -0.025690332 0.064233094 -0.08925446 -0.11772166 0.14834069 0.10117303
0.05778505 -0.047335908 -0.024004862 0.024154305 0.010231033 -0.09913649 -0.0685837 0.067089185
0.042591006 -0.12056731 -0.080053315 -0.07518782 -0.05143428 0.05014327 -0.03392203 -0.00081820786
-0.00877136 -0.058811985 0.006568581 0.03996311 -0.11910445 -0.003131345 0.13572337 -0.0006246865
0.0024382323 -0.115007065 -0.02338618 -0.052304827 -0.019828334 -0.14846164 -0.06305508 -0.008779436
0.1044081 -0.07800872 0.12387641 0.051754966 -0.022350669 -0.056017905 0.0748274 0.058171675
-0.099984735 -0.102159396 0.080938116 -0.01688248 -0.08101275 0.031677708 -0.074988216 -0.13164772
-0.10301404 -0.14975342 0.108821526 -0.08833966 -0.08312445 0.109129444 0.14883922 0.12657462
0.13990332 -0.067226 -0.13879135 0.14209656 -0.08875291 -0.052903138 0.05260992 0.11755215
-0.059406936 0.059941143 -0.080017805 0.059128493 -0.046488643 -0.028762996 0.074401304 -0.03609471
-0.006577924 0.08492331 -0.04608064 -0.09871972 -0.06999646 0.0070471615 -0.11330597 -0.0811361
-0.0151177645 0.00864619 0.1297027 0.10456072 -0.112744436 -0.14501975 0.098254815 -0.0336797
0.12562265 -0.105113216 -0.06253399 -0.08557739 -0.06424063 0.010304853 -0.049815312 -0.0667043
-0.014607191 -0.042027436 0.049044386 0.015896544 -0.0724305 0.13219984 -0.1335776 0.13177986
0.14594252 -0.0054716617 -0.09667188 -0.14809021 -0.014321074 0.00318937 0.052630857 0.072674155
-0.002269894 -0.00450933 -0.13183188 -0.115325145 -0.14853418 -0.1416645 -0.07149518 -0.057309523
-0.1461765 0.056948215 -0.092252836 -0.04308436 -0.056501515 0.12999158 0.029833525 0.1253426
-0.12896816 -0.10114062 -0.02789703 0.07836865 0.05007422 0.009582624 -0.14235993 0.0046269745
-0.030924067 0.09335214 -0.022200793 -0.14457048 -0.058325343 -0.13916609 0.11295842 -0.0516837
-0.010942027 0.032222316 -0.010335788 -0.07051515 -0.06564736 -0.11784855 0.03568548 -0.034558795
0.08658582 0.051851228 0.11359711 0.12746085 -0.10903241 0.046786845 -0.0062477887 0.076529354
0.08445437 0.018631518 0.10122965 -0.008087754 0.008265018 -0.020555034 0.102982685 0.019390717
0.1321107 0.024103463 0.14351083 0.116680816 -0.0029362738 -0.031585686 0.030452847 0.1261683
0.09834774 -0.14594603 -0.0027471036 0.00035373867 -0.13251998 0.13085635 -0.0125743 -0.090618566
-0.06152702 0.12999047 -0.12818499 0.099115595 0.09757711 0.041005284 0.12199058 0.015484884
00000000: d456 993d daaa 21bd ca43 11be b07d eabd
00000010: e511 08be 18f9 c4bc f434 16be fc4e 243d
00000020: b436 10be da99 13bd d0f4 d13c 0cb5 a3bd
00000030: 9179 003e 6685 e7bd 304b 81bc ad52 1b3e
00000040: a987 0c3e 05e1 80bd 80e1 5bbb 8694 f43d
00000050: 6813 813d aee1 99bd e0e8 263d 35db 143e
00000060: 5aae f13d 5240 03be e273 833d d07d 7abc
00000070: c5d5 98bd 4be7 083e a858 9ebc 701b d0bc
00000080: 0030 64bb a218 44bd 80e7 0cbc 2ad5 ce3d
00000090: 1a1c cb3d d058 213c b5f5 14be 677c 84bd
000000a0: 00b1 72bc 2fbf 8bbd 8c97 2b3d ba65 e03d
000000b0: 550c 053e 7ea7 54bd 203a f93b 68c5 563d
000000c0: 9038 403c c4c2 a83d 6d45 8bbd 00ff b83c
000000d0: b8a6 06be 4a95 f8bd c07e 9bbc e424 753d
000000e0: b838 d7bd b4c0 87bd 8874 d2bc a48c 833d
000000f0: 0bcb b6bd 0e18 f1bd 9fe6 173e ce33 cf3d
00000100: 04b0 6c3d 4ce3 41bd d8a5 c4bc 40df c53c
00000110: 10a0 273c 1208 cbbd 9c75 8cbd 0e66 893d
00000120: e873 2e3d feeb f6bd fef2 a3bd 12fc 99bd
00000130: c0ac 52bd 0863 4d3d d4f1 0abd 007d 56ba
00000140: c0b5 0fbc d6e4 70bd 403d d73b 5cb0 233d
00000150: 09ed f3bd 4037 4dbb 11fb 0a3e 00c2 23ba
00000160: c0ca 1f3b d388 ebbd 6094 bfbc 963d 56bd
00000170: 086f a2bc 5406 18be 0623 81bd a0d7 0fbc
00000180: ead3 d53d 09c3 9fbd eab2 fd3d 04fd 533d
00000190: c018 b7bc 0873 65bd 1c3f 993d 6c45 6e3d
000001a0: ccc4 ccbd f238 d1bd e2c2 a53d 204d 8abc
000001b0: 03ea a5bd 7cc0 013d 6c93 99bd a9ce 06be
000001c0: 06f9 d2bd f658 19be d2dd de3d 6ceb b4bd
000001d0: 273d aabd 427f df3d 4f69 183e c79c 013e
000001e0: d142 0f3e c9ad 89bd 521f 0ebe c381 113e
000001f0: 16c4 b5bd f6b0 58bd 807d 573d 2ebf f03d
00000200: b054 73bd d884 753d 60e0 a3bd b830 723d
00000210: e06a 3ebd 60a0 ebbc b65f 983d 0cd8 13bd
00000220: a08b d7bb 46ec ad3d 0ebf 3cbd 912d cabd
00000230: 4e5a 8fbd e0eb e63b f60c e8bd af2a a6bd
00000240: 80b0 77bc c0a8 0d3c c9d0 043e ee23 d63d
00000250: 8ee6 e6bd 0f80 14be d239 c93d baf3 09bd
00000260: 39a3 003e 9945 d7bd d211 80bd 3343 afbd
00000270: 9790 83bd b0d5 283c 240b 4cbd 449c 88bd
00000280: 0053 6fbc f624 2cbd c4e2 483d 7839 823c
00000290: 7156 94bd 655f 073e 91c8 08be 4df1 063e
000002a0: f571 153e a04b b3bb e8fb c5bd f6a4 17be
000002b0: f0a2 6abc c004 513b 7493 573d 30d6 943d
000002c0: 80c2 14bb 00c3 93bb f0fe 06be 972f ecbd
000002d0: 5819 18be 8010 11be 116c 92bd 64bd 6abd
000002e0: 4baf 15be 8842 693d 0eef bcbd 3a79 30bd
000002f0: 226e 67bd 831c 053e 7065 f43c cf59 003e
00000300: 3b10 04be d022 cfbd 5088 e4bc be7f a03d
00000310: a01a 4d3d 7000 1d3c cdc6 11be e09d 973b
00000320: 7854 fdbc 682f bf3d 70de b5bc 490a 14be
00000330: 8ee6 6ebd 8e81 0ebe be56 e73d 4ab2 53bd
00000340: 3046 33bc 8cfb 033d 7057 29bc 3f6a 90bd
00000350: 2072 86bd 955a f1bd f02a 123d 868d 0dbd
00000360: e853 b13d f461 543d 9aa5 e83d 1985 023e
00000370: 624c dfbd 90a3 3f3d 40ba ccbb 6cbb 9c3d
00000380: 6af6 ac3d 20a1 983c 7e51 cf3d 8082 04bc
00000390: 006a 073c 0863 a8bc 96e8 d23d 48d9 9e3c
000003a0: 0748 073e a074 c53c 81f4 123e 5af6 ee3d
000003b0: 806e 40bb fe5f 01bd 4078 f93c 4332 013e
000003c0: 8a6a c93d e072 15be c008 34bb 0076 b939
000003d0: 51b3 07be 35ff 053e 7004 4ebc 3a96 b9bd
000003e0: c203 7cbd 391c 053e ed42 03be 1efd ca3d
000003f0: 82d6 c73d 28f5 273d 32d6 f93d 50b4 7d3c
